model/exp_pg_CartPole-v0/900.pth (torch_old, 12003 bytes, 4 tensors)

l1.weight f4 [400, 4]
00000000: 32d3 b7be 2ce3 b13e 3424 dfbc 5ca6 e8be
00000010: e1d6 9ebe 687c aa3d 1329 e1ba ae84 d8be
00000020: 6034 cc3e b1ba 77bd 8bdd 173e 30c2 af3e
00000030: fd2f ff3e ff2b cdbe 7058 9bbe 93f8 003f
00000040: d1e5 8dbd 1ab9 8e3e dda9 eabe 8ff5 aabc
00000050: 947f 94be 0bf8 d63e 8463 24be a56d c93d
00000060: cca2 de3e d901 b33e ebf7 813e 39c8 2b3e
00000070: 2f45 d13e e968 cfbb d85e 63be cf49 a23d
00000080: 19b1 1bbe 7308 c4be 0335 913e b814 57bd
00000090: 197c 28be 5592 b9be a4c1 063c d923 eabd
000000a0: 4242 a4be 9cf0 b43e 79df 1cbf 795a f9be
000000b0: 3df6 11be d233 de3e c833 023f 05a2 12be
000000c0: 4330 03bf cd2c 23be d943 9a3e d3a3 0f3f
000000d0: 941c e53e d63c ef3d 7167 17bf 73d8 bdbe
000000e0: 9761 2ebe 4eed 81be 3a2e acbe e394 f23e
000000f0: 8477 9fbd 47b1 ca3d 9183 02bf 4859 c3be
00000100: 29b8 34be 98c3 9e3e a781 05bf 785f 153e
00000110: c7e1 043d fea2 4f3e 1669 fd3e abd0 f33e
00000120: c9e6 e53e 96d1 853d 9077 0f3e 8403 54be
00000130: 3429 92ba f121 cabe 7435 c03d e02e bfbe
00000140: 332a b03e e2aa 4fbe c399 e33e 4921 0b3f
00000150: 222b 853e 09f3 70be b3ac ce3e 4428 f83e
00000160: 1527 69be 195a 9e3b 32b9 18be c50d b63d
00000170: 6265 b73e 91f4 1f3e 6763 18be cc98 6abe
00000180: f407 83be fe35 03be 2746 febd b3f8 b43e
00000190: 25e5 a8be f480 eabe aa32 d43c d2c8 e6be
000001a0: 6bf4 40be 66ea 0a3d 4d1f b7be 5009 7abe
000001b0: 6452 12be 61bf 833c 4ee5 cd3e 19c9 d5be
000001c0: 222e 6a3e 14ad da3e 7c81 d03e 1d6f d93e
000001d0: 50b6 a2bd 3aa7 e93e b9d7 093e b172 ebbd
000001e0: 9929 ff3e 7b99 b93d de25 b4be f283 c23e
000001f0: 6f3f a5bd f439 d43e 6fac 6bbe 56ad f63e
00000200: 4884 4e3e e74f 6b3d 3ec4 303f b6b5 f73e
00000210: 91a7 d1bd be8b 0d3e 56af 123f 5a3f 743d
00000220: f9b6 c0be 4a10 85be b31a 5abe d12a 0cbe
00000230: de7f 8d3e 399e 5c3e 3c1f c8be 5a33 83bd
00000240: 3bb5 91be 3e4b 323e 68fb 833e e3da de3e
00000250: cd82 003f dcdd 413e d216 23bf 4a3e e2be
00000260: ae08 6fbe cc1d b5be ca61 90be 2755 43be
00000270: b762 e1be 37d6 babe 3a10 9a3d 94ee 7bbd
00000280: 891a 38be 036d d83e 08fb 203f 0351 be3e
00000290: a3d4 8bbe 96f9 66bd bc1f 6d3c dfe3 b2be
000002a0: 3c28 a0bb 062b 07be 2595 683e 2555 fabe
000002b0: 5e07 7b3e e771 b7bd 08e9 e03e 8649 a1be
000002c0: b60c 983e 4258 44bd 0821 dabe 9cde 69be
000002d0: 6518 b8be 1673 f9be f1ba fb3e 019f 30bd
000002e0: 62d5 98be 9ed6 a43e 0bff 0ebf 6ea7 acbe
000002f0: c69c e7be 645b 163d 9601 a3be b6d0 65be
00000300: ac5a a9bc 869a 783c a260 913d 7f15 6d3d
00000310: 9555 6a3e f429 903e d971 37bf ef98 54be
00000320: 98d6 bfbe 2a4d 11be a3b5 75be c7a7 863e
00000330: 71c1 90bc 69f5 59be 418f c4be 54cf 8bbe
00000340: bf25 7f3e 85a3 bdbe b352 483e 75b3 d1be
00000350: 4c96 9dbe c3af 183e 032f 48bd 864e bb3d
00000360: fbb5 883e 64b7 f13e 3e95 823e dd00 f23e
00000370: a23b ddbe fade 1bbe 276b 8cbd 62e6 f0be
00000380: d0ca 033e 5aff 60bc 4988 233f e6ce 513d
00000390: 7b0f 97be 23f9 473e d2e7 a9bd 290e 713e
000003a0: 8d04 c03e 4732 1d3e 355e c5be 7d85 e23e
000003b0: 8958 d0be ac20 00be 3265 8a3e 5ee5 7fbd
000003c0: 9a4a 783e f16e f7bd e657 f7be dd17 f7be
000003d0: 0dac 9ebd 1188 6e3e 98de c7be 42c2 c83c
000003e0: 49e3 8cbd 2c5f b9be 7a2f 29bf bcdc e1be
000003f0: bf9f 01bf 33ad d63e 8d62 93bd cffb 0a3f
-0.35903317 0.3474363 -0.027238943 -0.45439422 -0.31023315 0.0832451 -0.0017178379 -0.42288727
0.3988371 -0.060480777 0.14830606 0.3432784 0.498413 -0.4007263 -0.3034091 0.50379294
-0.069285996 0.27875596 -0.4583272 -0.020869045 -0.29003584 0.41986117 -0.16053587 0.09835366
0.4348358 0.34962347 0.2538446 0.16775598 0.40873095 -0.006329645 -0.22204149 0.07924234
-0.15204276 -0.38287696 0.28360757 -0.052509993 -0.1645359 -0.36244455 0.008224878 -0.11432619
-0.320818 0.3533982 -0.6127849 -0.48701838 -0.14254089 0.4339891 0.5086026 -0.14319618
-0.51245517 -0.15935059 0.3012989 0.5610935 0.44748366 0.116815254 -0.59142214 -0.370792
-0.17029415 -0.25376362 -0.33629018 0.47379217 -0.07786468 0.09897094 -0.50982004 -0.38154054
-0.17648377 0.310086 -0.5215096 0.145872 0.03244188 0.2027702 0.49494237 0.4762014
0.44902638 0.06534116 0.14010453 -0.20704466 -0.0011151196 -0.3947902 0.093851954 -0.3734045
0.34407195 -0.2028003 0.44453248 0.54347664 0.2600947 -0.2353021 0.40366134 0.4846822
-0.22768815 0.004832518 -0.14914396 0.08889345 0.35819536 0.15620638 -0.14881669 -0.2290985
-0.25592005 -0.12813565 -0.12415724 0.35345992 -0.32987323 -0.45801508 0.025903065 -0.4507509
-0.18843238 0.033914946 -0.35766068 -0.24417615 -0.14289242 0.016082468 0.40214008 -0.41754988
0.22869161 0.42710173 0.4072379 0.42467585 -0.079449296 0.45635396 0.13461198 -0.11496485
0.49836424 0.09062477 -0.3518514 0.3799129 -0.080687396 0.41450465 -0.23014997 0.4817912
0.20167649 0.057449248 0.6904944 0.48380822 -0.10237039 0.13822839 0.5729879 0.05963073
-0.37639597 -0.2598899 -0.21299247 -0.13688208 0.27636617 0.21544732 -0.3908633 -0.06406279
-0.2845858 0.17411515 0.25777745 0.43526372 0.50199586 0.18932289 -0.63706696 -0.44188148
-0.23343155 -0.35374296 -0.28199607 -0.19075452 -0.44020626 -0.36491558 0.07522626 -0.061506823
-0.17978872 0.4227067 0.62883043 0.37171182 -0.27310666 -0.056390367 0.014472898 -0.34939477
-0.004887609 -0.13200006 0.22713144 -0.48893085 0.24514529 -0.08957272 0.4392779 -0.31501406
0.29697198 -0.04793573 -0.42603326 -0.22838825 -0.35956112 -0.48720616 0.49166062 -0.043120388
-0.29850298 0.3219499 -0.55857915 -0.3372149 -0.45236796 0.03670825 -0.31837147 -0.22442898
-0.020673119 0.01517356 0.07098509 0.05788183 0.2288421 0.28157008 -0.7165809 -0.20761465
-0.3746841 -0.14189592 -0.2399507 0.2629988 -0.017670365 -0.21285023 -0.38390544 -0.27306616
0.24916743 -0.37038818 0.19562797 -0.40957227 -0.3077873 0.14910798 -0.04887296 0.091458365
0.2670134 0.47210228 0.25504488 0.47266284 -0.4320956 -0.15221778 -0.06856375 -0.47050768
0.12870336 -0.013732756 0.6387983 0.051222704 -0.29503998 0.19528632 -0.08296169 0.23540558
0.37503472 0.1535121 -0.38548437 0.44242468 -0.40692547 -0.12512463 0.2703033 -0.0624746
0.24247208 -0.12081707 -0.4830925 -0.48260394 -0.0774766 0.23294093 -0.39037013 0.024506692
-0.06879289 -0.36205423 -0.6608807 -0.4411372 -0.5063438 0.41929016 -0.071965314 0.5429048

l1.bias f4 [400]
00000000: 4be0 d63e 5e2f 3bbd 065c ca3e d626 25be
00000010: 8bb6 44be 11c2 0d3e b333 a6bd 079f febe
00000020: d184 963e 0eb9 a5be 5536 023f ce5c 713e
00000030: 4d8c cabd 5646 c43e 0206 edbd 90e8 853e
00000040: 12ae 6c3d 1a8f 7e3e 42c9 cfbd 9da3 3b3e
00000050: 660b 21be d3a2 43bd 8176 7d3e 1e5a 303e
00000060: b9ce 113e f05e e03e 4b8e 483e 2b9a e6be
00000070: e40c a53e b9ec 763e 7be6 9abd e900 bfbe
00000080: 9871 d43e da94 b93e d5c6 b4be 1814 b9be
00000090: 7ed1 963e 1f76 d53e e5db c1be fccd 133e
000000a0: feb5 733e 1c22 c33d 749c c5be 63db e73d
000000b0: c018 6d3d 035c 0abe 8b46 e8be 13d0 dc3c
000000c0: 0a82 cfbd be21 a43c 0034 87bd 7cc1 ee3d
000000d0: b5c7 fa3d debb 3fbe 1c99 013e d073 a13c
000000e0: c14f d83e 5d0f aa3d ce79 d2be 5583 9a3e
000000f0: 95c1 ab3e 07ff cb3e 0f39 163e 5038 93bd
00000100: 6550 c0be cac1 93bc 13fb 07be f726 6bbc
00000110: 61aa cabe 6dd6 5ebe 3a49 ccbe 1838 bc3e
00000120: 5e05 df3e 3744 23be 53a8 c93e feab 6e3e
00000130: a22a cdbe 8539 9c3e 59fa 65be 564e b83d
00000140: e738 f9be c60d ae3e a746 8c3e 91c7 163d
00000150: 78c5 a5be 5d86 7dbe 4697 b73d 7a07 e93e
00000160: 3ee5 af3c a379 e4be 118b a4be 5ee4 f23d
00000170: 4a28 48bd 8649 44be ecb0 af3d e66d 5b3e
00000180: c64c 20bd bd0e c9be 5094 fa3d 5202 85be
00000190: 1f15 513e e20c 9f3e 5686 d2be 98ed d53d
000001a0: 7c2f a2bc 2c93 223e 5f1d f23e 1c93 ffbe
000001b0: 64c8 b9be 28ca 603e 10b9 a93e a5b3 3c3e
000001c0: 54d4 703e 53fa 2abd b362 c33e 8f5a b6bd
000001d0: 732a f4be 2e26 103e ca1f bcbe bc7e d23e
000001e0: 8b73 c23e cf56 b03e 63bf 6dbe f26f 3b3e
000001f0: 300b 9abe 8d54 45be b7cc a5bd 41f2 4dbc
00000200: 00c2 023f 471c 55bd 6660 0bbe e080 0a3e
00000210: 913d 303b 53f0 3abc 4d43 77be b878 7dbd
00000220: fbc1 78be ca22 01bf 8e29 b23e 5dda c5be
00000230: af3e 13be 8fe8 f93e be6a 233e e1d3 72be
00000240: 768d 6bbc 9920 903e 59dc 453e 6d85 ef3e
00000250: e75d 44be 7623 f4bd 89df babe 616d 803e
00000260: af7a b93e 9280 c9be 61f0 8d3e 6bf9 8b3d
00000270: 5e0c cabb 7999 113d 7bd4 c03b 758d d93e
00000280: 8115 7dbe 7b21 41be 0740 3c3e 5e83 5cbd
00000290: 74da 953d 0856 42be 3303 18be 4917 07bf
000002a0: f4b0 bcbe 6e07 0f3e e6cc 803e 6051 cd3e
000002b0: 699e bf3e 0146 a53d 553e dc3e 28ae cbbe
000002c0: 4122 2a3e f802 96be 32a4 8a3e 69b0 ad3e
000002d0: 5af5 253e 3751 a93e 9760 9f3e 950b 633e
000002e0: 96c7 d63e 2dc2 6c3e 67cb da3d e739 5d3d
000002f0: 6337 ccbe e31b d93e 70bd 3dbe bbc2 dbbe
00000300: 4cef 953e b49a d23c 834a 133e 28e4 883e
00000310: 809a 213e 56b5 71bd 15ba 953e ee22 a4bd
00000320: 1877 b4be 356a d0be 013c fe3d 26be a03d
00000330: 7257 98be 751b a33e cc09 d9be 635e b1bd
00000340: d7c9 04bd d3dd 92bd 6863 a63e 4772 a03e
00000350: 1220 81be 8e18 62be 6634 c23d 9d33 f53e
00000360: 76c5 b1be 5dff 213e 25ad 59bd 1b44 8d3e
00000370: d970 9e3e a371 273e 7a00 c8be 263b 8bbe
00000380: 2f42 27bb dc4e feba 9415 cfbe 29d9 6ebe
00000390: 40e6 413d bc7b 6239 d989 bc3e f7ac 023d
000003a0: d570 44be 518c 72be 2200 2abd cb9e ab3d
000003b0: 64bf a33d 34cb 71bd dfcb c1be 33ac 1d3d
000003c0: b39c a33e 954d 9cbd 19d0 3fbe 368a 823e
000003d0: e665 c73e a780 d3be 66fb 3b3c efec b9be
000003e0: 4239 053e 7b26 c73e 3b02 6f3d b8b1 c33e
000003f0: 5a8f 763e 1827 cbbc ef74 033d 0cde 393e
0.41967997 -0.04569947 0.39523333 -0.16128096 -0.1921026 0.13843562 -0.081153296 -0.49730703
0.29398206 -0.32367748 0.50864154 0.23570558 -0.098900415 0.38334912 -0.115734115 0.26153994
0.057783194 0.24859276 -0.10145809 0.18324132 -0.15727004 -0.047762703 0.24752237 0.17221877
0.14239015 0.43822432 0.1958553 -0.45039496 0.32236397 0.2411374 -0.07563492 -0.37305382
0.41492915 0.36246377 -0.35307947 -0.36148143 0.29456705 0.41691682 -0.3786308 0.14434046
0.23799893 0.0952799 -0.38595927 0.113211416 0.05788493 -0.13511662 -0.4536632 0.026954686
-0.10132225 0.02003562 -0.06601715 0.11657998 0.12245122 -0.1872401 0.12656063 0.019708544
0.42248347 0.083037116 -0.41108555 0.30178323 0.3354613 0.39843008 0.14670204 -0.07188475
-0.37561336 -0.018036742 -0.13279371 -0.014352552 -0.39583114 -0.21761484 -0.39899617 0.36761546
0.43558782 -0.1594399 0.39386234 0.23307797 -0.4007159 0.30512634 -0.22458781 0.089993164
-0.48676226 0.33994883 0.27397653 0.036811415 -0.3237722 -0.24758287 0.089644 0.45513517
0.021471616 -0.4462405 -0.3213735 0.11859964 -0.048866548 -0.19168672 0.08578667 0.21428642
-0.039135717 -0.39269057 0.122353196 -0.25978333 0.20418213 0.31064516 -0.41118115 0.10445708
-0.019798033 0.15876454 0.47288033 -0.49916923 -0.36285698 0.21952116 0.33149004 0.18427904
0.23518497 -0.041742634 0.3816124 -0.089039914 -0.47688636 0.14077064 -0.36743003 0.41112316
0.37978777 0.3444123 -0.2321754 0.18304422 -0.3008666 -0.19270535 -0.08095687 -0.012569965
0.5107727 -0.05202892 -0.13610992 0.13525724 0.0026892165 -0.011409837 -0.24146767 -0.061882704
-0.24292748 -0.5044371 0.3479733 -0.3864316 -0.1437938 0.4881024 0.15958688 -0.23713638
-0.014376989 0.2814987 0.19322337 0.46781483 -0.19176446 -0.11920826 -0.3649867 0.2508345
0.36226413 -0.39355904 0.27722457 0.06834682 -0.006166025 0.035546754 0.0058847046 0.42490736
-0.24715234 -0.18860428 0.183838 -0.05383622 0.07317057 -0.18978131 -0.1484497 -0.52769905
-0.36853755 0.13967678 0.25156325 0.40101147 0.37425545 0.08069993 0.43016306 -0.39781308
0.1661463 -0.2929914 0.27078396 0.33923653 0.16206875 0.33069775 0.3112838 0.22172387
0.41949147 0.23120947 0.10683327 0.054010298 -0.39886007 0.42404088 -0.18529296 -0.42922005
0.29284132 0.025708534 0.14383893 0.2673657 0.15781593 -0.059010826 0.29243532 -0.08014475
-0.3524711 -0.4070603 0.124137886 0.07848768 -0.29754215 0.31856886 -0.42390287 -0.08660581
-0.032419052 -0.07171216 0.32497716 0.31337187 -0.2521978 -0.2207968 0.094826505 0.4789094
-0.34720963 0.1582007 -0.05314364 0.27591023 0.3094547 0.16351943 -0.39062864 -0.27193564
-0.0025521626 -0.0019402164 -0.4044615 -0.23325028 0.047338724 0.00021599134 0.3682392 0.031903233
-0.19183667 -0.23686339 -0.041504033 0.08379897 0.07995489 -0.05903168 -0.37850854 0.0384943
0.3195549 -0.07631985 -0.18731727 0.25496072 0.3894493 -0.4130909 0.011473512 -0.36313578
0.13010123 0.38896546 0.058351737 0.38221526 0.24078122 -0.024798915 0.03209394 0.1815111

l2.weight f4 [2, 400]
00000000: 39ab b83c b570 3e3d 3871 bcbc 60e0 a4bc
00000010: 992f 773d 4bac 61bc d760 aebd 125c 4dbd
00000020: 8d0e e53c 715f 94bc 96c8 a33d edbb abbc
00000030: 4d1e 4bbd 2855 563d a11b f2bb 55f7 983d
00000040: 0aeb 663c ff0e e6bd 33a4 823d bad1 913d
00000050: 039e 1bbe 374c b2bd 2816 85bc 55b6 a9bb
00000060: 583f 21bc f401 8e3d 2455 a03c 008c 053d
00000070: 1743 adbd 1594 173c 1fcc bdbd 99be 4fbd
00000080: c6f4 b2bd 6d53 6cbd addc ce3c ad05 5c3d
00000090: 7b95 c1bd e0dc b03c 97b2 963c 7f58 2b3d
000000a0: 5a0a 4cbc babf ad3d 2b5a 5f3d 765d 30bb
000000b0: c948 fd3d 8ee5 24bd a345 793d 44dd 863d
000000c0: af2c eb3c 246a b03d 1bdd 96bd 5f51 873d
000000d0: 3b17 243d ab70 afbc bc83 4bbd 3fbe c53d
000000e0: 23b7 b7bc 5123 3bbc 7c91 123c ddc2 3f3d
000000f0: 08d2 d33d ff9e 363d 080e c83d 1ef2 43be
00000100: 2ef7 013d f728 6abc 4719 05be e3b1 233d
00000110: 49c2 3d3d 934d a33d b5a4 b13c d3c7 f63b
00000120: 3308 053d d0a4 d6bc c2eb 02bd 8356 34bd
00000130: 259c 0b3d 20ab 3a3d 5d00 2cba 7b3d 633d
00000140: e0ba 403d 80f0 a9bd fe4f 423b ff68 0d3e
00000150: 9474 113b db8a a63d 8b72 963d a18b 1ebd
00000160: a6bd e73b 9fd3 bbbc 483e 903d 5e9d 12bd
00000170: aeb5 033d 7eab ebbc 6161 88bc 0052 4bbd
00000180: fa55 cfbb a09f 193c 3322 723c 7c56 83bb
00000190: 0f12 34bd 3356 813c a1da 8bbc 0f25 a4bd
000001a0: 6ba7 56bd 42fb 0cbc 553e 453d 8978 213c
000001b0: 6219 f63c 54c3 863d dce1 ee3c e725 f53a
000001c0: c461 91bd 86fb bc3d cbd1 7abc 23d9 5dbc
000001d0: 9a2d 933d 2cf2 f6bc 12ff 7c3d 42d6 4bbd
000001e0: 6c68 b7bd 9306 923c 1784 ae3d b939 ba3d
000001f0: 00ea 183b 3391 ea3b f716 823b 5996 fabb
00000200: b94a 8b3d 6ea6 ef3c d3d2 09bc 2f25 033e
00000210: 0ef6 1cbd a1b8 273c e32d eabc cddb f9bd
00000220: c8f7 d63c 6879 bfbb 9c21 c9bd 364a df3b
00000230: 64f5 9bbd 40bb 833d 2a81 7e3d 6a50 033d
00000240: 135a 25bd 85f3 bc3c 5fa9 31bc 6fbb 0e3d
00000250: da22 36bd 60fd fa3c 692b 833d 94a4 9b3d
00000260: a353 2cba a757 7f3c 0157 0ebd ed70 9d3d
00000270: 9f4f 503e 8908 4d3e 9a77 8e3d e6d0 5d3d
00000280: 77c3 c4bc 853e 6abd 817f 6b3d e1e3 08bd
00000290: 3f38 b33d dbc3 aebb 9a3b 98bd 1637 093d
000002a0: 655b 4b3d ac08 9bbd bcec 833d 0028 3a3d
000002b0: 29e2 30bd 0d66 343d 90c2 15bd aba0 ed3d
000002c0: f44d a93d 10be 9e3d 4f78 50bc 99d8 b43c
000002d0: 1be1 ea3c 2902 2dbc cd6b 33bd e812 503d
000002e0: 3584 593d 70ac 573c e045 d2bc 2e98 51bd
000002f0: a6e8 ca3d 963e e4bb 60e3 66bd 08bf 2d3d
00000300: 0b35 b33c 1270 af3d b754 b4bd df19 9ebc
00000310: 9e0f c13c beb6 a23d 7c32 2c3d 0164 a9bd
00000320: 6f80 bebd 0d9c 06bd 4278 f6bd 7a84 afbc
00000330: ed77 f23b 35a8 223b 11ed 7b3d 8446 493d
00000340: 0f01 a4bd 827d 19be b9e1 7bbc a111 0dbd
00000350: 514c 643c 1ca9 57bd 485a d438 1a58 91bd
00000360: 2d11 37bd 652f 63bd eeb2 803d 167a 6b3d
00000370: 96c1 3c3d c6da d8bd f0f4 203d f67f 04be
00000380: 4894 91bd c9d1 1dbd 7982 dbbc c336 303d
00000390: 2c1b 2d3d 41bd 17bd 3186 013c e206 0c3e
000003a0: 60b7 9e3b 71be 163d 7949 12be 6cd2 403e
000003b0: ea8f a0bd bceb 7bbd 223c 1abc 28fb 02bc
000003c0: 348d ec3c 9515 1abe 6ee1 bcbd 2d72 af3c
000003d0: c777 e33a bcac 0ebd 0214 d53d 6b75 54bd
000003e0: 222f 513c 5df2 65bb 45b9 b23d d42a 723d
000003f0: 9bc6 303d 7054 39be 8862 c8bd 54e6 c6bd
0.022542583 0.046494205 -0.023003206 -0.020126522 0.060348127 -0.013773988 -0.085145645 -0.050136633
0.02796104 -0.018111916 0.07997243 -0.020963633 -0.049589444 0.052327305 -0.0073885475 0.0746905
0.014094124 -0.11233329 0.06378975 0.0712008 -0.15196995 -0.08705943 -0.016245916 -0.0051792064
-0.0098417625 0.06933966 0.019571848 0.032604218 -0.08460062 0.009251614 -0.09267449 -0.050718877
-0.08738093 -0.05769675 0.02525171 0.05371635 -0.09452339 0.021589696 0.018395705 0.041832443
-0.01245364 0.084838346 0.05452935 -0.0026911176 0.12367398 -0.040257983 0.060857426 0.06585172
0.02870783 0.08613995 -0.07366391 0.06607317 0.040061217 -0.021416029 -0.04968618 0.09655427
-0.022426194 -0.011421994 0.008945819 0.046816695 0.10342795 0.044585224 0.09768301 -0.19135329
0.03172987 -0.014291993 -0.12997924 0.039964568 0.046327863 0.079737805 0.021684984 0.007531145
0.032478523 -0.026201636 -0.031963117 -0.044027817 0.034084458 0.045573354 -0.00065613334 0.055478554
0.047053218 -0.08297825 0.002964973 0.13809584 0.002219473 0.08131953 0.07346066 -0.03870738
0.0070721684 -0.022928057 0.07043129 -0.03579461 0.032155685 -0.028768297 -0.016647996 -0.04963875
-0.006327388 0.0093764365 0.014778662 -0.0040081125 -0.043962535 0.015788173 -0.017072024 -0.08014881
-0.052405756 -0.008604826 0.048155148 0.009855398 0.0300414 0.06580225 0.029160433 0.0018703312
-0.070987254 0.09227662 -0.015308808 -0.013540539 0.07186432 -0.030144773 0.06176669 -0.04976488
-0.08955464 0.0178254 0.08521288 0.09093041 0.0023332834 0.0071584224 0.003970023 -0.0076473174
0.068013616 0.029254165 -0.008412081 0.12807153 -0.038320594 0.01023689 -0.028586334 -0.12200127
0.026241198 -0.00584333 -0.098208636 0.0068142666 -0.07615164 0.064321995 0.0621349 0.03205911
-0.040369105 0.023065338 -0.010843604 0.03484672 -0.04446683 0.030638397 0.06404764 0.0759975
-0.0006573742 0.015584863 -0.034750942 0.076875545 0.20342873 0.20022787 0.06956406 0.0541543
-0.024018986 -0.05718853 0.057494644 -0.033420447 0.087509625 -0.0053334064 -0.07433243 0.0334998
0.049647707 -0.075700134 0.06441638 0.045448303 -0.043184433 0.044042636 -0.036562502 0.116029106
0.082668215 0.07751095 -0.012723996 0.022075938 0.028671792 -0.010559597 -0.04380398 0.05079928
0.053104598 0.013163671 -0.025668085 -0.05117052 0.099076554 -0.0069654686 -0.056369185 0.04241851
0.021875879 0.085662976 -0.088052206 -0.019299446 0.023567017 0.079450116 0.042040333 -0.08271027
-0.093018405 -0.032863665 -0.12034656 -0.021425474 0.00739955 0.0024819497 0.06150538 0.049139515
-0.080080144 -0.14989284 -0.015373641 -0.03444064 0.013934211 -0.05265151 0.00010125764 -0.07096882
-0.044694114 -0.05546512 0.06284128 0.057489477 0.046083055 -0.10588603 0.03929609 -0.12939438
-0.071083605 -0.038530145 -0.026795613 0.043020975 0.04226224 -0.03704572 0.007905529 0.136745
0.0048436373 0.036802713 -0.1428584 0.1883027 -0.078399494 -0.06150411 -0.009413751 -0.007994451
0.028875925 -0.15047295 -0.09222685 0.021416748 0.0017354422 -0.0348327 0.10404207 -0.05186979
0.012767585 -0.0035087087 0.087267436 0.059122875 0.043158155 -0.18098617 -0.09784418 -0.097119

l2.bias f4 [2]
00000000: a96a 8c3b c3a1 b8bc
0.004285176 -0.022538071
