model/exp_ddpg_Pendulum-v0/900_actor.pth (torch_old, 489850 bytes, 5 tensors)

l1.weight f4 [400, 3]
0	0x3f09a871	0.53772646
1	0xbede6b04	-0.4344102
2	0xbeb8c2c7	-0.36086103
3	0x3ef5e849	0.48028782
4	0x3d79fe35	0.061033446
5	0xbd7f7292	-0.062365122
6	0xbe33199a	-0.17490235
7	0xbeaf515f	-0.3424177
8	0xbedeb574	-0.43497813
9	0x3d3ec493	0.046574187
10	0x3f401282	0.7502824
11	0x3dcb6b74	0.099326044
12	0xbf682e7a	-0.9069592
13	0x3f1a6658	0.60312414
14	0x3e251fbe	0.1612539
15	0x3f247117	0.6423506
16	0x3f74e522	0.9566213
17	0x3e82e67d	0.25566474
18	0xbf0181e8	-0.50588846
19	0xbefba09e	-0.4914598
20	0x3e93263c	0.28740108
21	0x3eec9481	0.4620705
22	0xbda91efb	-0.08257862
23	0x3e748f24	0.23882729
24	0xbeeaa72a	-0.4583066
25	0x3ee4345c	0.44571197
26	0xbe3c9a95	-0.18418343
27	0xbebd8a62	-0.3701964
28	0xbe2e88c9	-0.17044367
29	0xbd689800	-0.056785583
30	0x3ec4476f	0.3833575
31	0xbf3292ad	-0.6975506
32	0xbe03622e	-0.12830421
33	0x3e7fbf98	0.24975431
34	0xbf19aa55	-0.6002553
35	0xbd68a3f9	-0.056797
36	0x3f411770	0.7542639
37	0xbe727249	-0.23676409
38	0xbe781230	-0.24225688
39	0x3deb65f9	0.11494059
40	0x3e836a87	0.2566721
41	0x3e86a527	0.26297876
42	0x3dd2a9a8	0.102862656
43	0xbe536f80	-0.20648003
44	0xbee15935	-0.44013372
45	0x3f0feda9	0.56222016
46	0xbf66afd1	-0.90112025
47	0x3eaa7720	0.3329401
48	0x3e839051	0.25696042
49	0xbe027f0a	-0.12743774
50	0xbe999ad6	-0.30000943
51	0xbf324ff4	-0.6965325
52	0x3f0d6336	0.5522951
53	0x3e9335ca	0.28751975
54	0xbee1810f	-0.44043776
55	0x3b614242	0.0034371768
56	0x3ececdbb	0.40391335
57	0x3e25dfc9	0.16198649
58	0x3f59ad67	0.85030216
59	0x3ea0041e	0.3125314
60	0xbd0c9b95	-0.034328062
61	0x3f29dda5	0.6635383
62	0x3d2d9729	0.042380486
63	0x3e9be321	0.30446723
64	0x3c8f4ddd	0.017493183
65	0xbe276e00	-0.16350555
66	0x3e5b699c	0.21427006
67	0xbf90bdf6	-1.1307971
68	0xbe15002e	-0.1455085
69	0x3ef05b0d	0.46944466
70	0x3f20398f	0.6258783
71	0x3e0a663a	0.13515559
72	0x3e6b208e	0.22961637
73	0xbf3074e0	-0.6892834
74	0xbed0a852	-0.40753418
75	0x3f1f5d1a	0.62251437
76	0xbe5ddb9c	-0.21665806
77	0x3e4f2e53	0.20232515
78	0xbeae08d7	-0.3399112
79	0xbf1ced7b	-0.61299866
80	0x3d47c1a6	0.048768662
81	0xbf16d6e9	-0.58921677
82	0xbf38ed7c	-0.7223737
83	0xbd798a23	-0.060922753
84	0x3f176dde	0.5915202
85	0x3e5753d0	0.21028066
86	0x3e826dd0	0.25474405
87	0xbe7db268	-0.24775088
88	0xbe41dced	-0.18931933
89	0xbe7bcae5	-0.24589117
90	0x3d0d4d65	0.034497637
91	0x3f5731c3	0.84060305
92	0x3ee6d5f4	0.45085108
93	0x3e2d7649	0.16939653
94	0xbe736f2e	-0.2377288
95	0x3e812a65	0.25227657
96	0xbeb722c3	-0.3576871
97	0x3f185697	0.59507126
98	0xbed5c4a2	-0.4175158
99	0xbeafea2b	-0.34358343
100	0x3f49465b	0.7862298
101	0x3e56b0bc	0.20965856
102	0x3f1a77c3	0.6033899
103	0xbecf4a7c	-0.40486515
104	0xbd945604	-0.07242969
105	0x3ee23ad0	0.44185495
106	0x3ee811fa	0.45326215
107	0x3dd4705a	0.10372992
108	0x3f343198	0.70388174
109	0xbed0c4be	-0.40775102
110	0xbe9caef8	-0.3060224
111	0xbf3289de	-0.6974162
112	0xbe85e69e	-0.2615251
113	0xbe0b2c44	-0.13591105
114	0xbf64d247	-0.8938336
115	0x3eff6327	0.49880335
116	0x3e067de8	0.13133967
117	0x3e2eb9d7	0.1706308
118	0xbe7afa86	-0.2450963
119	0xbe82f589	-0.25577953
120	0xbf1bdca5	-0.6088355
121	0x3d5b8448	0.05359295
122	0xbcd17668	-0.025569156
123	0x3f16dbbd	0.58929044
124	0xbf56cfa0	-0.8391056
125	0xbe940a22	-0.2891398
126	0xbf17ec11	-0.59344584
127	0x3e52aace	0.2057297
128	0xb9f9e081	-0.0004766025
129	0x3f5a46bb	0.85264176
130	0x3e2f99ee	0.17148563
131	0x3e8ad461	0.27115157
132	0x3debf98f	0.11522209
133	0xbe2256f9	-0.1585349
134	0x3e0b6e74	0.13616353
135	0xbeafd6eb	-0.34343657
136	0xbf7d92a3	-0.99051875
137	0xbd9a747e	-0.0754175
138	0x3e435c3a	0.1907815
139	0xbc72f47d	-0.014828798
140	0x3e4c26b5	0.1993664
141	0x3e1ce312	0.15320995
142	0x3e066cc5	0.1312743
143	0x3e2d29c9	0.16910471
144	0x3f5b71dc	0.8572061
145	0xbe38f4c8	-0.18062127
146	0x3ec2176b	0.37908491
147	0xbe2ebeee	-0.17065021
148	0x3cbd7629	0.023127632
149	0xbcf62fd0	-0.030052096
150	0xbdb97179	-0.09054846
151	0x3db68050	0.089111924
152	0xbe9a502c	-0.3013929
153	0xbeefa88d	-0.46808282
154	0xbeebad61	-0.46030715
155	0xbdd8abab	-0.10579618
156	0x3f49e43e	0.78863895
157	0x3e37f473	0.17964344
158	0xbe588105	-0.21142967
159	0xbf094a95	-0.5362943
160	0x3d153b59	0.03643355
161	0x3ee8c040	0.45459175
162	0x3f0f7446	0.56036794
163	0x3e18a9fc	0.14908594
164	0x3e548438	0.20753562
165	0xbec0b262	-0.37636095
166	0x3f4af17d	0.7927473
167	0x3d5b53c6	0.05354669
168	0xbf139a1a	-0.57657015
169	0xbe985603	-0.29753122
170	0xbe56b820	-0.20968676
171	0xbf4603d5	-0.773496
172	0x3eca7db5	0.39549032
173	0x3eacfaf5	0.33785215
174	0x3f0ef91c	0.5584886
175	0xbd8d563c	-0.069012135
176	0x3e8bb91f	0.27289674
177	0x3f49abf0	0.7877798
178	0x3e5c2d32	0.21501616
179	0x3e92442c	0.28567636
180	0x3d007d65	0.031369586
181	0xbee3dfdc	-0.4450673
182	0xbe10ddc8	-0.14147103
183	0xbeee042e	-0.46487564
184	0x3eb16fe3	0.34655675
185	0x3ef59fb1	0.47973397
186	0xbea376fc	-0.31926715
187	0xbed4bc9d	-0.4155015
188	0xbea760f0	-0.32691145
189	0x3eb23d31	0.3481231
190	0xbecbc7e7	-0.3980095
191	0x3e2902f8	0.16505039
192	0xbe61785e	-0.22018573
193	0xbedf60f5	-0.4362866
194	0xbdfa0ce9	-0.12209494
195	0x3d8f8f64	0.070097715
196	0x3f363685	0.7117694
197	0x3e387c3b	0.1801614
198	0xbf1d65c4	-0.6148341
199	0x3f4ac806	0.7921146
200	0x3e229d04	0.15880209
201	0xbdea6259	-0.114445396
202	0xbe64e445	-0.22352703
203	0x3e90304c	0.28161848
204	0xbf0379b5	-0.51357585
205	0x3dbb91c8	0.09158665
206	0xbee5b486	-0.4486429
207	0x3f58292c	0.84437823
208	0x3f0a1e7e	0.5395278
209	0x3e5f3c82	0.21800426
210	0x3ea30a6f	0.31843898
211	0xbf22ec98	-0.63642263
212	0xbd77dd46	-0.060513757
213	0x3de61de7	0.11236172
214	0xbf63528f	-0.8879785
215	0xbe565a25	-0.20932825
216	0xbe725f98	-0.23669279
217	0xbea7e075	-0.32788435
218	0x3edc8ab9	0.43074587
219	0x3f58e4b0	0.8472395
220	0xbe9bf134	-0.3045746
221	0xbdfcea9a	-0.12349434
222	0xbf4f65ff	-0.8101501
223	0x3f33ed96	0.702844
224	0x3b90d545	0.004419955
225	0xbd6ea0b4	-0.058258727
226	0xbeccc9cd	-0.39997712
227	0x3eda0988	0.42585397
228	0x3ef6f07a	0.48230344
229	0x3f61ed3c	0.88252616
230	0x3e6786d6	0.2261003
231	0xbf08ce5a	-0.5343987
232	0xbf25f5c0	-0.6482811
233	0xbdf8fb33	-0.121572874
234	0xbdeb2429	-0.114815064
235	0x3e5330e4	0.20624119
236	0x3ea869b7	0.32893154
237	0xbecd43da	-0.4009083
238	0xbf07aee5	-0.5300124
239	0xbeca5c7d	-0.39523688
240	0xbe173bef	-0.14768957
241	0x3f0fad57	0.5612387
242	0x3e9051a8	0.281873
243	0xbf19c5b6	-0.6006731
244	0x3f33a85f	0.7017879
245	0x3ed4dbb5	0.41573873
246	0xbe6d5962	-0.23178628
247	0x3f509a9a	0.81485903
248	0x3dbecf2b	0.09316858
249	0x3f46158e	0.7737664
250	0x3e37c723	0.17947058
251	0x3e6b9c13	0.23008756
252	0x3e0092be	0.12555978
253	0x3df8aaf1	0.121419795
254	0xbe1d0250	-0.15332913
255	0x3ec8dc0f	0.3923039

l1.bias f4 [400]
0	0x3cb1882d	0.021671379
1	0xbe7ce94f	-0.24698375
2	0xbedb8a9d	-0.4287919
3	0xbd90c1c0	-0.07068205
4	0xbe5d9bf4	-0.21641523
5	0x3ecb808a	0.39746505
6	0x3eaa4df0	0.33262587
7	0xbeddfe4b	-0.43358073
8	0x3f0abaee	0.5419148
9	0x3da210c2	0.079133525
10	0x3e39ed3c	0.18156904
11	0x3d9f9eec	0.07793984
12	0xbf199aa7	-0.60001606
13	0xbd08fae8	-0.033442408
14	0xbec7b787	-0.39007208
15	0x3e9bad00	0.30405426
16	0x3d95d449	0.07315881
17	0xbe846744	-0.25860035
18	0xbddc32f8	-0.10751909
19	0xbe680dda	-0.22661534
20	0xbe6643a7	-0.22486745
21	0xbc8795fb	-0.016551008
22	0xbea06ebb	-0.3133448
23	0x3d447d94	0.047971323
24	0xbe928bbe	-0.2862224
25	0xbe84f756	-0.25969952
26	0x3e90c2fc	0.2827376
27	0xbe44db85	-0.19224365
28	0xbeb9e8ad	-0.3631033
29	0xbd89dedb	-0.067319594
30	0xbedb0757	-0.42779037
31	0x3ddd3dc5	0.10802797
32	0x3ebb5264	0.36586297
33	0x3e96a539	0.2942293
34	0x3cf228e6	0.029560518
35	0x3d259ea3	0.04043449
36	0xbf3688f1	-0.71302706
37	0x3e2dd07e	0.16974065
38	0xbe05ca4b	-0.1306545
39	0xbf26529e	-0.64969814
40	0x3f2425bd	0.64120084
41	0xbf14b715	-0.5809186
42	0x3eae5613	0.34050044
43	0xbd63c064	-0.0556034
44	0xbf27a8e6	-0.65492094
45	0xbe95b0d6	-0.29236478
46	0x3cd1db92	0.025617395
47	0x3e85708c	0.2606243
48	0xbf3a76ab	-0.7283732
49	0x3e8f2ac5	0.27962318
50	0xbc96a4ad	-0.01838907
51	0xbd6a69f4	-0.05722995
52	0xbf05169d	-0.5198763
53	0xbe2bd53e	-0.16780564
54	0xbe30ca58	-0.17264688
55	0xbf075a58	-0.5287223
56	0x3eca1cd3	0.39475116
57	0xbeb4282e	-0.35186905
58	0xbde1e75f	-0.11030459
59	0xbf24cbca	-0.6437346
60	0x3e85c5f6	0.26127595
61	0xbed60147	-0.4179785
62	0xbe1be5eb	-0.15224425
63	0xbe99bac2	-0.30025297
64	0x3ec55a94	0.38545668
65	0x3eca6db3	0.3953682
66	0x3d94003e	0.07226609
67	0xbe027d92	-0.12743214
68	0x3d380394	0.044925287
69	0xbdca365d	-0.0987365
70	0x3eb57747	0.35442564
71	0xbee8d7ec	-0.45477235
72	0xbe4c2847	-0.1993724
73	0x3dc47e5a	0.09594412
74	0xbe3e74fc	-0.18599313
75	0xbe354ae8	-0.17704356
76	0x3ea353e1	0.31899932
77	0xbe134d9c	-0.14385074
78	0xbebacc07	-0.36483786
79	0xbe51460d	-0.20436879
80	0x3cb20fec	0.021736108
81	0xbefe9790	-0.49725008
82	0xbe616394	-0.22010642
83	0xbddf2e8a	-0.108975485
84	0xbe1468e8	-0.14493144
85	0xbf26f3f5	-0.65216
86	0x3d9f11a9	0.0776704
87	0x3cb1ba45	0.021695266
88	0xbf162a63	-0.58658427
89	0x3eb6c0e2	0.35694033
90	0xbdb7515d	-0.08951066
91	0xbf13c504	-0.57722497
92	0xbe8064cb	-0.250769
93	0x3e94ea47	0.2908499
94	0xbf59be79	-0.85056263
95	0xbe5b613a	-0.21423808
96	0xbef869f9	-0.4851835
97	0xbef08079	-0.46973017
98	0x3f037504	0.51350427
99	0x3eeb1c50	0.45920038
100	0xbe5f2234	-0.21790391
101	0xbcc839e7	-0.024441672
102	0x3e8a7ae1	0.27046874
103	0x3e45bac5	0.19309528
104	0xbe6b7e5f	-0.22997425
105	0xbe51a9dc	-0.20474952
106	0x3df4c4f4	0.11951628
107	0xbef5646b	-0.47928175
108	0xbef56ea5	-0.47935978
109	0xbf07b26f	-0.53006643
110	0xbea42b68	-0.32064366
111	0xbf0bee8d	-0.54660875
112	0x3d68fc06	0.056880973
113	0x3eb423c8	0.3518355
114	0x3da43a8c	0.080189794
115	0xbf078ede	-0.52952373
116	0xbdbac05c	-0.09118721
117	0x3eabba7e	0.3354072
118	0xbe183532	-0.14864042
119	0xbe0cb6a4	-0.13741547
120	0xbf125159	-0.57155377
121	0xbe069234	-0.1314171
122	0x3ed8e828	0.4236462
123	0x3daba2f2	0.08380689
124	0xbec2d53f	-0.3805332
125	0x3e57bc40	0.21067905
126	0x3eea8b7f	0.45809552
127	0x3ea6ed0f	0.32602736
128	0xbd54197a	-0.05178211
129	0x3ec75fbc	0.38940227
130	0xbda97786	-0.082747504
131	0x3dec3c15	0.11534897
132	0x3bde418d	0.0067827166
133	0x3e170fea	0.14752164
134	0x3ef139a7	0.47114298
135	0xbed0454c	-0.4067787
136	0xbdc0d405	-0.094154395
137	0x3e2c9e79	0.16857328
138	0xbf36672f	-0.71251196
139	0x3d60bb96	0.054866396
140	0x3ca69e30	0.020339102
141	0x3e56a604	0.20961767
142	0xbe7ae4a5	-0.24501283
143	0xbd48e446	-0.049045824
144	0xbddfc40c	-0.10926065
145	0x3ead00e5	0.33789745
146	0xbf15f7d7	-0.585813
147	0x3e80dfe1	0.25170806
148	0xbe9d22d4	-0.30690634
149	0xbe3b2d92	-0.18279102
150	0x3e774676	0.24147972
151	0x3ed6bc55	0.4194056
152	0x3e9d1827	0.3068249
153	0xbe04ca6a	-0.1296784
154	0x3cd95bb8	0.026532993
155	0xbead768e	-0.33879513
156	0x3d2ee1b9	0.042695735
157	0xbda472c0	-0.08029699
158	0xbd8a4f36	-0.067533895
159	0xbd15745e	-0.03648793
160	0xbdc81def	-0.097713344
161	0xbebe6329	-0.37185028
162	0xbf26c431	-0.65143114
163	0x3cb03341	0.021508815
164	0xbec9c2ca	-0.39406425
165	0x3e263b15	0.16233476
166	0x3e52964c	0.20565146
167	0xbb2eb46d	-0.0026657835
168	0xbdda431e	-0.10657333
169	0x3da1e2c7	0.079045825
170	0x3d98a46a	0.074532345
171	0xbda3f715	-0.080061115
172	0xbe8a283c	-0.2698382
173	0x3eaa29ae	0.33234924
174	0x3e603dfa	0.21898642
175	0x3e03e656	0.12880835
176	0xbe8c1f89	-0.2736781
177	0xbe35eae7	-0.1776539
178	0xbe8ab9cc	-0.27094877
179	0xbf18bcb6	-0.5966295
180	0xbf21c589	-0.6319204
181	0xbdbc0805	-0.09181217
182	0xbcd019ce	-0.02540293
183	0x3ee0369b	0.4379166
184	0xbe8c6963	-0.27424154
185	0x3e6e60a9	0.2327906
186	0xbd2d1035	-0.042251784
187	0x3e9433e6	0.28945845
188	0xbe2f62f3	-0.1712759
189	0x3deb96a9	0.115033455
190	0xbf5078e4	-0.81434464
191	0xbe3bfbc3	-0.18357758
192	0x3f1859e9	0.5951219
193	0x3e7fc7d4	0.24978572
194	0x3e5e2c03	0.21696477
195	0x3ec131a5	0.37733188
196	0xbcf75cda	-0.030195642
197	0xbe8ccd7b	-0.2750052
198	0xbf325233	-0.69656676
199	0xbed4995c	-0.41523254
200	0xbe84e8bc	-0.25958812
201	0x3eb38429	0.35061768
202	0xbf5bab78	-0.85808516
203	0xbd950b02	-0.0727749
204	0xbdc45943	-0.09587338
205	0x3ed60c3d	0.41806212
206	0x3e468d61	0.1938987
207	0x3ea790e8	0.32727742
208	0xbe3e2d7e	-0.18572041
209	0xbe82822a	-0.25489932
210	0xbf00419d	-0.5010012
211	0x3e43daf2	0.1912649
212	0xbe87b5fb	-0.26506028
213	0x3e40b139	0.18817605
214	0x3f0c6e4e	0.5485581
215	0xbf351e85	-0.70749694
216	0xbf2d6ebf	-0.6774711
217	0x3d80cfe5	0.06289653
218	0x3bedf162	0.007261441
219	0xbee8220f	-0.45338485
220	0x3f177ac4	0.591717
221	0x3d79b8d4	0.06096728
222	0xbe37f847	-0.17965804
223	0x3e323a22	0.17404988
224	0xbef810f7	-0.48450443
225	0x3e60f6c0	0.21969128
226	0xbf0cc0f7	-0.5498194
227	0xbdb5827a	-0.08862777
228	0xbf4d0653	-0.80087775
229	0xbf0f8a60	-0.5607052
230	0x3e5e5e4e	0.21715662
231	0xbe44a29c	-0.19202656
232	0x3e458618	0.19289434
233	0xbe56a4c6	-0.20961294
234	0xbf1693c3	-0.58819216
235	0xbf04115c	-0.5158899
236	0xbf137c10	-0.5761118
237	0xbf33aa42	-0.7018167
238	0xbf56fac2	-0.83976376
239	0x3e1b3402	0.15156558
240	0x3ea6bbb1	0.32565072
241	0xbefcc72b	-0.49370703
242	0xbf0a4948	-0.5401807
243	0x3e9adce9	0.30246666
244	0x3e44ef94	0.19232017
245	0x3ca9d7ad	0.020732725
246	0x3e8b7a26	0.2724163
247	0x3e956359	0.2917736
248	0x3eb9d0ee	0.36292213
249	0x3e9a6e52	0.30162293
250	0x3d9a245f	0.075264685
251	0x3cdd5ab9	0.027020799
252	0x3dba1a7e	0.09087084
253	0xbf070a30	-0.5274992
254	0x3e41630e	0.18885443
255	0xbde2189f	-0.11039852

l2.weight f4 [300, 400]
0	0xbe5c1a03	-0.21494298
1	0xbe63447f	-0.22194098
2	0xbdf00160	-0.11719012
3	0x3da992c8	0.082799494
4	0x3cfef8cb	0.031124493
5	0xbe74e136	-0.23914036
6	0x3b22b9ab	0.0024829905
7	0xbc7d4627	-0.01545862
8	0x3e2c0cff	0.16801833
9	0x3c055427	0.008137739
10	0xbe2078b9	-0.15671052
11	0xbd8630b4	-0.06552258
12	0xbd38831f	-0.04504692
13	0xbdae8dce	-0.08523141
14	0xbe0ce9f1	-0.13761117
15	0x3d61d7a7	0.055137303
16	0xbd924064	-0.07141188
17	0x3caff7a0	0.021480381
18	0xbd1d3b47	-0.03838661
19	0xbd9d9351	-0.07694114
20	0x3e2d8f66	0.16949233
21	0xbc7f1a39	-0.015570217
22	0xbda261ca	-0.07928808
23	0xbe71c4f3	-0.23610286
24	0xbe651064	-0.22369534
25	0xbdb5d581	-0.08878613
26	0xbda5ae72	-0.080899134
27	0xbdc761f9	-0.09735484
28	0xbf34cfa5	-0.7062934
29	0xbda40d75	-0.08010379
30	0xbdae368f	-0.085065
31	0xbc84928a	-0.016183157
32	0x3dcb2ca3	0.09920623
33	0x3e414730	0.18874812
34	0xbd84c71d	-0.0648329
35	0xbe3a3af1	-0.18186547
36	0xbe0ae42c	-0.13563603
37	0xbc842c60	-0.01613444
38	0x3e162844	0.14663798
39	0xbe49164d	-0.19637413
40	0x3e518c44	0.20463663
41	0x3c604c6b	0.013690094
42	0x3e1b5562	0.1516929
43	0xbe2001af	-0.15625642
44	0xbe6add50	-0.22935987
45	0xbe48e5ae	-0.19618866
46	0xbe0199d0	-0.12656331
47	0xbd839c2e	-0.06426273
48	0xbd988397	-0.07446974
49	0x3d5db887	0.054131057
50	0xbc09e6a2	-0.008416804
51	0xbd53b5e8	-0.05168715
52	0xbeafb477	-0.3431737
53	0xbd46293e	-0.048379175
54	0xbeac6497	-0.33670494
55	0x3da660f0	0.08123958
56	0x3b103b61	0.002200805
57	0x3c2f6c7d	0.010707018
58	0xbddaf519	-0.1069128
59	0xbe95ec59	-0.2928188
60	0xbe161ef6	-0.14660248
61	0xbd486157	-0.048920956
62	0xbe0af0fa	-0.13568488
63	0x3c8492e1	0.016183319
64	0xbda6f595	-0.0815231
65	0x3d198ab9	0.03748581
66	0x3e5e6a73	0.21720295
67	0xbc89f65b	-0.016841104
68	0xbd49adc5	-0.049237985
69	0xbe4bf7c8	-0.1991874
70	0xbdcbf671	-0.09959114
71	0xbca21290	-0.019784242
72	0x3b99432b	0.0046771965
73	0xbd70ba32	-0.05877132
74	0xbd7777ce	-0.06041699
75	0xbcb4b17f	-0.022057293
76	0xbe4df362	-0.20112374
77	0xbe1143cc	-0.14186019
78	0xbcf0055e	-0.029299434
79	0xbe82e667	-0.25566408
80	0xbd0c6914	-0.034279898
81	0x3c3f1584	0.011662845
82	0x3e1f4953	0.15555315
83	0xbe96f29b	-0.29481968
84	0x3ba89ca4	0.005145626
85	0xbe8f1cd0	-0.2795167
86	0x3db383ac	0.08765349
87	0xbe4694d2	-0.19392708
88	0xbcbe5cb9	-0.023237573
89	0x3e21396f	0.15744565
90	0xbd781902	-0.060570724
91	0xbe4e985c	-0.20175308
92	0xbe93a0f2	-0.2883373
93	0x3e0af378	0.13569438
94	0xbe020e57	-0.12700783
95	0xbf319014	-0.6936047
96	0xbeef670e	-0.46758312
97	0xbe510d68	-0.2041527
98	0xbd41ed6c	-0.047345564
99	0x3bf747de	0.007546409
100	0x3dcbce5f	0.099514715
101	0x3e12b300	0.14326096
102	0xbd348fe1	-0.044082526
103	0xbc39c590	-0.0113386065
104	0x3c5e7aad	0.013579053
105	0x3d43a920	0.047768712
106	0xbe1e56fc	-0.1546287
107	0xbe498a82	-0.19681743
108	0xbe1cdf25	-0.15319498
109	0x3d60b6c3	0.054861795
110	0xbd7ec049	-0.062195096
111	0xbdf04da0	-0.11733556
112	0xbe002556	-0.12514243
113	0xbd02a3e7	-0.03189459
114	0xbe034cb2	-0.12822226
115	0x3de8615b	0.11346694
116	0xbdf63653	-0.1202208
117	0xbbf77e7f	-0.0075529213
118	0xbe05e304	-0.13074881
119	0xbe9bf149	-0.30457523
120	0xbd45ab85	-0.048259277
121	0xbdaa06b1	-0.083020575
122	0x3e14b671	0.14522721
123	0xbd6764e4	-0.0564927
124	0xbe64f5c2	-0.22359374
125	0x3b504396	0.0031778566
126	0xbdc40209	-0.09570701
127	0x3e3ade4a	0.18248859
128	0xbe4435b2	-0.19161108
129	0xbe49f0b0	-0.19720721
130	0xbde86aef	-0.11348521
131	0xbd9bda88	-0.07610041
132	0xbd96ee43	-0.073696636
133	0xbd95bc61	-0.07311321
134	0xbda62add	-0.08113644
135	0xbe8e56d6	-0.27800626
136	0xbddc26eb	-0.107496105
137	0xbe26a518	-0.16273916
138	0x3c7e408d	0.01551832
139	0xbd679811	-0.056541506
140	0xbe702376	-0.23451027
141	0x3e3e6eca	0.1859695
142	0xbd5b6969	-0.053567324
143	0xbe18b872	-0.1491411
144	0xbd3ca506	-0.046055816
145	0x3e5a51be	0.21320245
146	0x3de4f464	0.11179426
147	0xbda4f10b	-0.08053788
148	0xbe87d252	-0.2652765
149	0x3e43b80c	0.19113177
150	0xbdbe1f4f	-0.092833154
151	0xbdacaff5	-0.08431999
152	0xbd734c42	-0.059398897
153	0xbe45047e	-0.19239995
154	0x3e6db305	0.23212822
155	0xbf137813	-0.57605094
156	0x3cd17550	0.025568634
157	0xbe91e045	-0.28491417
158	0xbe8776f2	-0.26457936
159	0x3c0b3094	0.008495469
160	0x3d929e6f	0.07159125
161	0xbd005fce	-0.031341366
162	0xbc35843d	-0.011078891
163	0xbe2ddc75	-0.16978629
164	0xbe78cd12	-0.24296978
165	0x3bb2e175	0.0054590055
166	0xbe3d01c3	-0.18457703
167	0xbe855f69	-0.26049355
168	0xbe6d54ca	-0.23176876
169	0xbdcb3e3f	-0.09923982
170	0xbd50d1e4	-0.050981417
171	0xbe448cb8	-0.19194305
172	0x3c416e5e	0.011806099
173	0xbbce30f9	-0.006292459
174	0xbd09eb72	-0.033671804
175	0xbe01ef1d	-0.1268887
176	0xbcb16ac9	-0.021657364
177	0xbe31a719	-0.17348899
178	0xbc6231da	-0.013805831
179	0xbe43a8ce	-0.19107363
180	0xbc8317af	-0.016002504
181	0xbe86d391	-0.26333287
182	0xbd677f72	-0.056518026
183	0x3e585df0	0.21129584
184	0xbd891923	-0.066942476
185	0xbe059269	-0.13044132
186	0xbd9807a7	-0.074233346
187	0xbe711ebc	-0.2354688
188	0xbe8fddfa	-0.28099042
189	0xbe3d2b9b	-0.18473665
190	0xbe380dc8	-0.17974007
191	0x3d026bb1	0.031840984
192	0x3de64c53	0.112450264
193	0x3e496d5b	0.19670622
194	0x3e79b1bb	0.24384205
195	0x3de1ed6a	0.11031611
196	0xbc8ff39b	-0.017572215
197	0xbe3e4765	-0.18581922
198	0xbe14086e	-0.1445634
199	0xbe5446ea	-0.20730177
200	0xbeada0d6	-0.3391177
201	0xbe3b78e1	-0.1830783
202	0xbd7a8538	-0.061162204
203	0xbe769b4a	-0.24082676
204	0xbcb4fd0e	-0.022093322
205	0xbe019421	-0.12654163
206	0x3e02b8fc	0.12765878
207	0xbdc8bef9	-0.0980205
208	0xbe058dfe	-0.13042447
209	0xbe0ef895	-0.13962014
210	0xbdaf9f33	-0.08575287
211	0x3d3bd17f	0.045854088
212	0xbe5bfc58	-0.2148298
213	0xbdbfb7e2	-0.09361245
214	0x3e31934b	0.17341344
215	0xbd84f79f	-0.064925425
216	0xbd9c2a34	-0.07625237
217	0xbda61097	-0.08108633
218	0xbe83318e	-0.25623745
219	0xbc09a711	-0.008401648
220	0xbc9bf477	-0.019037468
221	0xbdad76dc	-0.08469936
222	0x3d457755	0.048209507
223	0xbe1cd246	-0.15314588
224	0xbdabfca6	-0.08397798
225	0xbe0f4017	-0.13989292
226	0xbe1d8f9c	-0.15386814
227	0xbe1225f1	-0.14272286
228	0xbe6eb37c	-0.23310655
229	0xbe160eeb	-0.14654128
230	0x3e500ce2	0.20317414
231	0xbdd8bd14	-0.10582939
232	0xbcac26f8	-0.021014675
233	0x3d994925	0.07484654
234	0xbd5bad51	-0.053632084
235	0xbd7cb143	-0.061692487
236	0xbc7f3346	-0.015576189
237	0xbdd54a18	-0.10414523
238	0xbcb855bb	-0.022501817
239	0xbe7f1936	-0.24911961
240	0x3e6d9499	0.23201217
241	0xbd60c84a	-0.05487851
242	0x3dafec65	0.085900106
243	0xbc8c93ed	-0.01716038
244	0xbd850be1	-0.06496406
245	0xbd204cec	-0.03913586
246	0xbcf188a2	-0.029484097
247	0x3de88db1	0.113551505
248	0x3c55a404	0.013039593
249	0x3e22ea32	0.15909651
250	0xbe1fecbf	-0.15617655
251	0x3e17d77b	0.14828293
252	0x3d1fc2c9	0.03900412
253	0xbde2c089	-0.110718794
254	0xbe2145f5	-0.15749343
255	0xbe452106	-0.19250879

l2.bias f4 [300]
0	0x3cd90d23	0.026495522
1	0xbd3c2cad	-0.045941044
2	0xbd5b6e55	-0.053572018
3	0xbc84eb00	-0.016225338
4	0xbcce8b91	-0.025213035
5	0xbcd99ef4	-0.026565053
6	0xbd60fa2f	-0.054926094
7	0x3d177701	0.036978725
8	0x3dde8b85	0.10866455
9	0xbb116d12	-0.0022190255
10	0xbcaeec3b	-0.021352878
11	0xbd00c06a	-0.0314335
12	0xbdbc52bd	-0.091954686
13	0xba40bc51	-0.000735228
14	0x3dd78d03	0.10524943
15	0xbd57b17a	-0.05265949
16	0xbd7cf88a	-0.061760463
17	0xbcadefcd	-0.02123251
18	0x3c7a894a	0.015291521
19	0xbcedb9d4	-0.029019274
20	0x3d38d3b8	0.045123786
21	0xbd2752e3	-0.04085053
22	0xbd996a93	-0.074910305
23	0xbc346c4c	-0.011012148
24	0xbd37b7e1	-0.044853095
25	0xbd9301d6	-0.071780846
26	0xbe0f46df	-0.13991879
27	0xbc5be4fe	-0.013421295
28	0x3c86bf7f	0.016448734
29	0xbc8e8c28	-0.017400816
30	0xbd1f811b	-0.038941484
31	0xbd264449	-0.040592466
32	0xbd272b65	-0.04081287
33	0xbd4e5108	-0.050370246
34	0x3cd4add6	0.025961798
35	0x3cb0a553	0.021563208
36	0xbcba2393	-0.022722041
37	0xbac0fa34	-0.0014723004
38	0xbcb215f2	-0.02173898
39	0xbc94a5fe	-0.018145557
40	0xbc3bb5e2	-0.011456938
41	0x3cd78a71	0.026311131
42	0xbca487a6	-0.020084213
43	0xbb781834	-0.0037856223
44	0xbcde6c53	-0.027151262
45	0x3959c857	0.00020769365
46	0x3b8017e1	0.0039090966
47	0x3b81967d	0.003954707
48	0x3d166422	0.036716588
49	0x3cd26177	0.02568124
50	0xbd1ba655	-0.038000423
51	0xbcd36bb7	-0.025808198
52	0x3c3867a0	0.011255175
53	0xba10ab42	-0.00055186835
54	0xbd5b7c34	-0.053585246
55	0x3c70c76d	0.014695984
56	0xbc1a6083	-0.009422424
57	0xbd1e4462	-0.038639434
58	0xbcba5665	-0.022746274
59	0xbcaa178a	-0.020763177
60	0xbca8b378	-0.02059339
61	0xbd18907b	-0.037247162
62	0xbc804272	-0.015656684
63	0xbd5d0865	-0.053963084
64	0x3cceb8d9	0.025234627
65	0xbd1e2499	-0.03860912
66	0xbd385926	-0.045006894
67	0xbe27b849	-0.16378893
68	0x3c8c876d	0.01715442
69	0x3cd682fe	0.026185509
70	0x3c52498b	0.012834917
71	0x3b288416	0.0025713495
72	0xbc7df712	-0.015500801
73	0xbd85022c	-0.06494555
74	0xbd2f1884	-0.04274799
75	0xbd66fe71	-0.056394998
76	0x3b0d6cfa	0.0021579848
77	0xbd1728b6	-0.03690406
78	0xbc4e703f	-0.012600004
79	0x3d18ea2b	0.037332695
80	0xbcf6e22e	-0.030137148
81	0xbd9426f8	-0.07233995
82	0xbd623652	-0.055227585
83	0x3da4e463	0.08051374
84	0xbd0ef8bb	-0.034905177
85	0xbd9c6469	-0.07636339
86	0xbd0fc6eb	-0.035101812
87	0xbcd56f9b	-0.026054194
88	0x3cf5ad3a	0.029989827
89	0xbccf0182	-0.025269274
90	0x3d1f3475	0.038868386
91	0xbd1380bf	-0.036011454
92	0xbda17294	-0.07883182
93	0x3cee6f20	0.029105723
94	0xbca58e58	-0.020209476
95	0xbd657fd7	-0.05603012
96	0xbce91103	-0.028450495
97	0x3c2161b6	0.009849956
98	0xbd25938c	-0.040423915
99	0xbd50a9fc	-0.05094336
100	0x3d133621	0.035940293
101	0xbb9b58fd	-0.004740833
102	0xbd048b2d	-0.03235929
103	0xbd99ca9f	-0.0750935
104	0x3caea826	0.021320414
105	0xbd055605	-0.032552738
106	0x3b9382df	0.004501685
107	0x3d06a78d	0.032874633
108	0xbd2ed680	-0.042685032
109	0xbd4f4b02	-0.050608642
110	0xbcbf7467	-0.023370935
111	0xbcc44603	-0.023959165
112	0xbd11a210	-0.035554945
113	0xbb8e621a	-0.0043451907
114	0x3cad9324	0.021188326
115	0xbd48fc4a	-0.049068727
116	0x3b8d36ea	0.004309525
117	0xbd687a39	-0.056757186
118	0xbcb2e30b	-0.021836778
119	0x3cd95d96	0.026533883
120	0x3cc74436	0.024324518
121	0x3d1e4b25	0.038645882
122	0xbd8cace7	-0.06868916
123	0x3c2a7100	0.010402918
124	0x3c2778f8	0.010221712
125	0x3b688976	0.0035482324
126	0x3d2fc5a7	0.042913105
127	0x3caf9adb	0.021436146
128	0xbd6df5e3	-0.058095824
129	0xbd52836f	-0.051394876
130	0xbd3e7eca	-0.046507634
131	0xbd0d6687	-0.034521606
132	0x3c93e9b7	0.01805578
133	0x3cc5adf7	0.024130804
134	0xbdc6d69a	-0.09708901
135	0xbd937d8a	-0.07201679
136	0xbca9e05e	-0.02073687
137	0xbd225e9e	-0.039641015
138	0xbbe7d714	-0.0070752
139	0x3a38d059	0.0007050089
140	0xbd15cf33	-0.036574554
141	0x3d5bd59b	0.053670507
142	0x3bd619f0	0.0065338537
143	0xbcdcd49d	-0.02695685
144	0x3c18efa5	0.009334479
145	0xbd16306f	-0.036667284
146	0xbb9f49fe	-0.0048611155
147	0xbd271f3d	-0.040801276
148	0xbd142c3f	-0.03617501
149	0x3c7840f9	0.015152209
150	0x3e1e8c69	0.1548325
151	0x3d153a7c	0.03643273
152	0x3d274f63	0.040847193
153	0xbd17216b	-0.036897104
154	0x3c8936bd	0.016749734
155	0x3c1cb178	0.009563796
156	0x3cf18991	0.029484542
157	0xbd5de681	-0.054174904
158	0xbe16c953	-0.14725237
159	0x3d2e81c5	0.042604227
160	0x3cdc2a19	0.026875542
161	0xbba7d5cb	-0.0051219217
162	0xbd8e19bf	-0.069385044
163	0xbc003170	-0.007824287
164	0xbd6a855b	-0.057256084
165	0x3b2acbf4	0.0026061507
166	0xbc978b28	-0.018498972
167	0x3bd3992a	0.0064574676
168	0x3d09b5bc	0.03362058
169	0xbd53a80d	-0.051673938
170	0xbc07e24e	-0.008293701
171	0x3935136b	0.00017268739
172	0x3e04c272	0.129648
173	0xbce3a9d3	-0.02779094
174	0xbe6a0767	-0.22854386
175	0x3c89265a	0.01674192
176	0x3ce8e941	0.028431537
177	0xbd4c7b6e	-0.0499224
178	0x3cdbb5fc	0.026820175
179	0xbc797a45	-0.015226905
180	0xbcc5cc64	-0.024145313
181	0xbd357d57	-0.044308987
182	0xbd1f8734	-0.0389473
183	0x3c91b064	0.017784305
184	0x3c840e14	0.016119994
185	0x3c19fdf6	0.009398928
186	0xbd641420	-0.055683255
187	0xbd1ec965	-0.038766284
188	0xbd46a7c9	-0.048499856
189	0xbd24f538	-0.04027292
190	0x3a2cb0c2	0.0006587618
191	0x3d832aaa	0.06404622
192	0xbb34c102	-0.0027580862
193	0x3b35daae	0.0027748751
194	0x3ccf7260	0.025323093
195	0xbcaad584	-0.020853765
196	0xbd51f7d4	-0.051261738
197	0x3b90feeb	0.00442492
198	0xbd4b98bc	-0.049706206
199	0xbd53c04c	-0.05169706
200	0xbd14c7e9	-0.03632346
201	0xbd56f768	-0.05248204
202	0x3d10b572	0.03532929
203	0x3caaee6a	0.020865638
204	0x3cc452cd	0.023965264
205	0xbdd2d901	-0.102952965
206	0x3d17a8dc	0.03702627
207	0xbd0e7e67	-0.034788515
208	0xbce6cc43	-0.028173571
209	0xbd3f4103	-0.04669286
210	0xbc9a7b1b	-0.01885753
211	0xbd9c2f56	-0.07626216
212	0xbd8ea2b0	-0.06964624
213	0xbd491ee4	-0.049101725
214	0xbc0962bf	-0.008385359
215	0x3cb7e20f	0.02244666
216	0xbacde0a0	-0.0015707202
217	0xbd6773a9	-0.056506786
218	0xbcc38ed9	-0.023871826
219	0x3c12a6ae	0.008950872
220	0x3c8da187	0.017288936
221	0xbcd44810	-0.025913268
222	0xbd53860f	-0.05164152
223	0xbd85a8a8	-0.06526309
224	0xbc9d704b	-0.019218585
225	0xbc2536c8	-0.010083862
226	0xbc8137f2	-0.015773747
227	0xbb1b30dc	-0.0023680246
228	0xbd0e435c	-0.034732208
229	0xbd614297	-0.054995146
230	0xbd4df18e	-0.050279193
231	0xbce7f3d3	-0.028314507
232	0xbb395ab3	-0.002828282
233	0xbd200346	-0.03906562
234	0xbcb029ee	-0.021504369
235	0x3cfd8dc9	0.030951397
236	0xbc95f3e6	-0.018304776
237	0x3d95f725	0.0732253
238	0x3b8c11cc	0.0042745825
239	0x3d1653f1	0.036701147
240	0xbd43cec6	-0.047804616
241	0xbd2c7996	-0.04210814
242	0xbd29bc9c	-0.041439638
243	0x3cb75fa1	0.022384467
244	0xbd1a84e7	-0.0377244
245	0x3c72b1dc	0.014812913
246	0x3bcb44cf	0.006203271
247	0xbb0b528d	-0.002125892
248	0x3bc715ab	0.006075581
249	0x3cc65d1f	0.024214325
250	0x3c71107e	0.014713405
251	0x3df3ce5f	0.119045965
252	0xbd9bad50	-0.07601416
253	0xbd215291	-0.039385382
254	0xbd7d8d0c	-0.06190209
255	0x3cffd522	0.03122956

l3.weight f4 [1, 300]
0	0x3e9cf73f	0.30657384
1	0xbdb3c45f	-0.08777689
2	0xbb9fb7c5	-0.004874202
3	0xbc55c37a	-0.0130470935
4	0x3b8c1b83	0.0042757406
5	0x3b2b8f29	0.002617786
6	0x3c56c7ed	0.013109189
7	0xbce2c909	-0.027683752
8	0xbeb00972	-0.34382206
9	0xbc53d319	-0.012928748
10	0xbd6814b0	-0.056660354
11	0xbce635c2	-0.028101806
12	0x3f0e6dbd	0.556362
13	0xbc134643	-0.00898892
14	0xbd574451	-0.052555386
15	0x3be0b3bc	0.0068573635
16	0x3ae74bf4	0.0017646537
17	0x3bb3eaf8	0.005490657
18	0x3dac1f32	0.084043875
19	0x3cb2fffc	0.021850578
20	0xb9c46a73	-0.00037463344
21	0x3c171a77	0.009222618
22	0xbd28916a	-0.041154303
23	0xbb3aa49a	-0.0028479458
24	0xbe5d44d2	-0.21608284
25	0xbabe868b	-0.0014535947
26	0xbedbc373	-0.42922553
27	0x3d1beaeb	0.038065832
28	0x3af330cb	0.001855397
29	0xbd83dd8b	-0.0643874
30	0xbd0749d7	-0.033029404
31	0x3c76855e	0.015046446
32	0xbb578fe4	-0.0032892162
33	0x3bc42fe6	0.0059871553
34	0x3cef34f1	0.02920005
35	0xbee266f5	-0.44219175
36	0xbd3d40f8	-0.046204537
37	0xbe5b78f6	-0.21432862
38	0x3b836a83	0.0040105
39	0x3c0ac6c5	0.008470242
40	0xbc5206dd	-0.012819019
41	0x3c23af00	0.009990454
42	0x3b49b6c5	0.0030779105
43	0xbd46b016	-0.048507772
44	0x3d419931	0.047265235
45	0x3c142251	0.009041385
46	0x3c65d9c4	0.01402897
47	0xbc1fb18f	-0.009746923
48	0x3bca36e0	0.0061710924
49	0xbe8eb1e4	-0.27870095
50	0xbd9278af	-0.07151925
51	0x3d218d2f	0.039441284
52	0x3bae3ea0	0.005317524
53	0x3cde6727	0.027148796
54	0xbbf1d213	-0.007379779
55	0x3ad4c927	0.0016234264
56	0xbc12f5a7	-0.008969701
57	0x3d4a7327	0.049426224
58	0x3c39c3ed	0.011338216
59	0x3dc42ef4	0.09579268
60	0x3cfd72df	0.030938564
61	0xbd13a41a	-0.03604517
62	0x3d5fcf89	0.05464128
63	0xbe0ba7fb	-0.13638298
64	0xbf2da251	-0.678258
65	0xbb904d3b	-0.004403738
66	0x3b3da7ed	0.0028939203
67	0x3e8ea6c9	0.27861622
68	0x3a8f4e56	0.001093338
69	0xbbc48a4c	-0.0059979316
70	0xbce1f0db	-0.02758067
71	0x3c84c40a	0.01620676
72	0x3d172907	0.03690436
73	0x3e54b590	0.20772386
74	0xbbb3f85c	-0.005492253
75	0x3b960abe	0.0045789173
76	0xbcc84b42	-0.024449948
77	0x3ebc849d	0.36819926
78	0xbd04822a	-0.032350697
79	0x3d2ef3d1	0.04271299
80	0xba04006d	-0.0005035464
81	0x3c16edcc	0.009211969
82	0xb9d2411b	-0.0004010283
83	0xbeb1c824	-0.34723008
84	0x3d189172	0.037248082
85	0x3ca50128	0.020142153
86	0xbb293d66	-0.002582395
87	0xbcf586d0	-0.02997151
88	0x3d009ed6	0.031401478
89	0x3ca7d5c2	0.02048767
90	0x3d086619	0.033300493
91	0x3c9bcfe3	0.019020027
92	0xbb650ee1	-0.0034951495
93	0x3ae9da66	0.0017841577
94	0xbd2a3c81	-0.041561607
95	0x3c01ab7f	0.007914423
96	0xbacfc449	-0.0015851344
97	0x3c353189	0.011059173
98	0xbb65c037	-0.0035057196
99	0xbd3ef914	-0.04662426
100	0x3b5604cc	0.0032656668
101	0x3d5408f0	0.051766336
102	0x39acb1c9	0.00032938857
103	0x3cd09238	0.025460348
104	0x3cb583bb	0.02215754
105	0xbaf38199	-0.0018578052
106	0xbc1f0380	-0.009705424
107	0x3aaede59	0.0013341411
108	0x3c001739	0.007818037
109	0xbc193cf8	-0.009352915
110	0xbc9ddfd7	-0.019271774
111	0x3f2f4fc1	0.6848107
112	0x3de71964	0.1128414
113	0xbd34d93a	-0.044152476
114	0xbb960b0a	-0.0045789527
115	0xbbe77c82	-0.007064403
116	0x3c63a5de	0.013894526
117	0xba8e7722	-0.0010869245
118	0xbc2a5dac	-0.01039831
119	0xbc536632	-0.012902783
120	0x3c88cc81	0.016699078
121	0x3b9a877c	0.004715858
122	0x3c67c8cb	0.014146994
123	0xbc238335	-0.009980013
124	0xbdb7e168	-0.0897854
125	0xbd3fc4de	-0.046818607
126	0xbb5e73d0	-0.0033943541
127	0xbcdc0a73	-0.026860451
128	0x3c30cb11	0.010790602
129	0xbd003f9d	-0.031310666
130	0xbd03bef8	-0.032164544
131	0xbd3a3207	-0.045457866
132	0xbd0e1fd4	-0.034698322
133	0x3cb9902a	0.02265175
134	0xbdcf60cd	-0.10125885
135	0x3a3172ef	0.00067691406
136	0x3d3f50fc	0.046708092
137	0xbd17abba	-0.037029006
138	0x3a92b8c8	0.0011193985
139	0xbce8a804	-0.028400429
140	0xbb1d5aaf	-0.002401035
141	0x3e4c4a31	0.19950177
142	0xbb81b296	-0.0039580567
143	0x3e28bb01	0.16477586
144	0xbd899429	-0.067177124
145	0x3ce16383	0.027513271
146	0xba8aa15c	-0.0010576653
147	0xbd386625	-0.045019288
148	0x39be8491	0.00036338394
149	0xbbb23fdb	-0.005439741
150	0x3ec767a6	0.38946265
151	0x3cd4acd0	0.02596131
152	0x3d3943e3	0.045230757
153	0x3ab9a417	0.0014163282
154	0xbd134411	-0.035953585
155	0xbc1c8fd5	-0.009555777
156	0x3c6c0d8f	0.0144075295
157	0x3cb545b8	0.022127971
158	0xbf373b3c	-0.7157476
159	0x3d28ecc6	0.04124143
160	0xba6ba610	-0.0008989284
161	0xbc991146	-0.018684994
162	0x3dce6053	0.10076966
163	0x3d408c58	0.047008842
164	0x3c813c2f	0.015775768
165	0xbb0e86bb	-0.0021747786
166	0xbec7604a	-0.3894065
167	0xbd1e0cee	-0.03858655
168	0x3a894b05	0.0010474628
169	0xbbf3b602	-0.0074374685
170	0xbd265ff3	-0.040618848
171	0xbd120d17	-0.035657015
172	0x3eb40acf	0.35164496
173	0x3ce4cc68	0.0279295
174	0xbe13ae7d	-0.14422031
175	0xbbebc234	-0.0071947817
176	0xbd2acc7b	-0.041698914
177	0xbc29cc6d	-0.01036368
178	0xbcd9ba0b	-0.02657797
179	0x3a977693	0.0011555724
180	0xbb3d40fe	-0.002887785
181	0x3a19fd9f	0.00058742793
182	0x3b5165c0	0.0031951517
183	0xbc76a7e5	-0.015054678
184	0x3b6fa912	0.003656928
185	0xbc30abad	-0.010783118
186	0xbf70dd6b	-0.94087857
187	0xbbebea90	-0.007199593
188	0xbd016c3c	-0.03159736
189	0x3aae6404	0.0013304953
190	0x3d36f65d	0.044668544
191	0xbc435cf2	-0.011924015
192	0x3a8958be	0.0010478718
193	0xba17550b	-0.0005772865
194	0xbc426966	-0.011865949
195	0xbf060cc2	-0.52363217
196	0xba28668c	-0.0006423972
197	0xbcf08154	-0.029358543
198	0xbbbf9078	-0.0058460794
199	0x3502233a	4.8480035e-07
200	0xbb25a010	-0.0025272407
201	0xbd4b2ea6	-0.049605034
202	0x3d2b3e2b	0.041807335
203	0x3cbd5491	0.023111613
204	0xbcfa4bbd	-0.030553693
205	0x3d2da367	0.04239216
206	0x3a356dbe	0.0006920955
207	0x3ae4ac73	0.0017446413
208	0xbccee867	-0.025257302
209	0xbcf928e1	-0.030415
210	0xbaabffee	-0.0013122538
211	0x3effac14	0.49935973
212	0xbdbe00d3	-0.09277501
213	0x3c0d0dd7	0.008609257
214	0xbc583b54	-0.013197739
215	0x3be00b04	0.0068372507
216	0x3c6808df	0.014162271
217	0x3b80de6e	0.0039327657
218	0xbadeea2e	-0.0017007047
219	0xbc18c867	-0.009325123
220	0x3d03634f	0.03207713
221	0xbab332f0	-0.0013671797
222	0xbd43cd56	-0.047803245
223	0xbe24a68b	-0.16079156
224	0x3ce3c7aa	0.027805168
225	0xbcaa2aee	-0.020772424
226	0xbd43a0a1	-0.04776061
227	0xbdde48a8	-0.10853702
228	0x3d3bc85c	0.045845374
229	0x3b2f7f8a	0.00267789
230	0x3d2d0f7a	0.042251088
231	0xbcbd47c0	-0.023105502
232	0xbb9ea00f	-0.004840858
233	0xbd1e1f68	-0.03860417
234	0x3bfc6e2c	0.007703563
235	0xb822b614	-3.8793383e-05
236	0xbcda575c	-0.026652984
237	0x3d033024	0.032028332
238	0x3b4901c9	0.003067123
239	0x3d1d2da4	0.038373604
240	0xbb1ce5e4	-0.0023940736
241	0xbe622af0	-0.22086692
242	0xbc0fc45e	-0.008774845
243	0xbc8c89cb	-0.017155549
244	0xbd245b8b	-0.040126365
245	0xbd0dbb83	-0.034602653
246	0x3be73d91	0.0070569
247	0x3d080b15	0.033213694
248	0xbd06b8d7	-0.03289112
249	0x3d26e629	0.04074684
250	0x3a82cc2e	0.0009979063
251	0x3eb2c011	0.3491216
252	0x3d150c0d	0.036388446
253	0xbd756918	-0.05991468
254	0xbc42728d	-0.011868131
255	0xbd3a3fd2	-0.04547102
