model/exp_ddpg_Pendulum-v0/900_critic.pth (torch_old, 491450 bytes, 5 tensors)

l1.weight f4 [400, 4]
00000000: 9e23 093f 2ad5 18be 1a7d 013e a8e9 efbc
00000010: 063b 7c3e 7bb3 35be b479 77be fe8a 91be
00000020: 3691 33be fec4 c93d 054c c8be 69b0 4f3d
00000030: b271 84bd 9533 8e3e 01ec a4be cd9c 69bd
00000040: 32fa 813e c284 86bf 632a 0dbe 88c9 b23e
00000050: 3e77 97be e05d c1bd 5eff b43e 7d5e 97be
00000060: ea95 cd3e 1910 5c3f 4f42 13bd d652 2ebe
00000070: ddb1 1b3e 21ef 183f a148 af3e 3abc 953e
00000080: fac4 8a3f 460d 7abf 5a30 bcbe 11d1 2ebe
00000090: b1be 1fbd d40d 253f f105 e9bd f963 91bc
000000a0: 6ebb 25bf d09d 913f 6073 973e bd6d d93d
000000b0: eb2c a1be 9e44 f93d 8f12 8fbe dc9c cbbe
000000c0: ea17 f5be 20d5 09bf 87d9 80bd aeb4 a33e
000000d0: 7605 d7be 979a edbd 461f a63e 3b9c 193d
000000e0: 49b3 6e3f 7f6c 0b3f 61ad 003e b20b 4e3e
000000f0: c047 efbe cd53 68be 998e bebe 89d2 a439
00000100: a959 0dbe be0d 873d 0ada 5d3e 5beb 72be
00000110: ce03 fe3d 7bb4 f2bd 7fdc 8fbd 2b8c ef3e
00000120: f702 50be e2e3 733e d3c9 f9be 72e1 81be
00000130: d713 133e d489 0a3f 313e 22be 4456 83bb
00000140: d115 be3d b9b6 3bbf 732e 61bd 820d a5be
00000150: 89c9 083c 165b dd3e 9b1c cc3e e70c c03d
00000160: 266e cd3e 8f35 a7bf c4ab a6be c155 91bd
00000170: addb ec3d 9979 9cbe f7f3 b63e 26c8 833e
00000180: 3a84 54be 39a5 75be 8d6c 3a3e b829 49bc
00000190: a885 92be 2931 d53e 17aa 223e a4f7 47be
000001a0: e612 54bf 572b cebe 4060 b3be 9f14 b03e
000001b0: 2319 abbe 0e7a 01bf 4d98 3d3e d94d f3bd
000001c0: a1c4 0dbe 03f0 0b3d 18d1 b8be 2303 c83d
000001d0: 44a7 b63e 0215 d2be 1210 bb3e 72eb 823e
000001e0: 1bd9 04bf 0eac 95bf 755b 7ebe 1737 c7bd
000001f0: edf5 f13e 94a7 e3be 462a cabe 8f93 4a3d
00000200: bc0f b1be fc76 c23e 2f5c ecbe ef31 dfbe
00000210: a73f 1e3f 00be 433f 2840 723e 6153 d13c
00000220: 1319 debe 567c b33f 1e41 b13e 94f6 2b3d
00000230: f8d1 fe3e 7450 813f ecd8 943e cb47 05be
00000240: 697b ae3e 008a 743f 4a90 12bd 8099 babc
00000250: 5387 02bf 8839 e33e b552 8d3e 5084 afbe
00000260: a3a7 1dbe 7c42 1abd e983 bcbe 65d6 9cbe
00000270: e299 fabe 490d 84be abfb 9b3e 21ad 783e
00000280: d8f5 ddbe ab72 173f 9a2d 06bd 36fc a5bc
00000290: e42a a5be 44a0 663e 03d6 18bd a07e 773e
000002a0: d740 e0be dd1d 1c3f 7a15 963e edfa 30be
000002b0: b80d d4be f91a 14be 70e1 8dbe cadb 1dbe
000002c0: 4c82 3c3e 114b d73e 6d2f a63e 93a0 e1bc
000002d0: c68f d63a 95ee 00bf 87a7 023e f54e 90be
000002e0: 55d1 5f3e 3374 553f ace3 3c3e 9ea9 ec3d
000002f0: 281d dabe aa0a a8bd 5aed 1d3e 6ae7 abbd
00000300: f750 783e fd1d 8dbf 9eb0 91be e18c cb3e
00000310: f396 0d3f 0659 d73e 010f 423e f290 c8be
00000320: 82f5 9b3f 5b8e 0dbe 4656 c2bd 890a e33d
00000330: 4be9 6cbd 27c9 0cbf 3394 8cbd e846 4bbc
00000340: f3a8 433f 0a9e 14bf 83b7 62be bb3d c33d
00000350: ace9 56be feb4 12bf 79af 813e 570e 803e
00000360: 669f 033f e783 d5be b9ca f03e 3d2e 7f3d
00000370: d4bb c93e 9486 3cbe 71df 6abe 715c 22be
00000380: 934c edbe 6b78 ab3e a31b 5ebd 2415 debe
00000390: a0f8 dabd 98c6 fbbd caf6 9fbe 4320 51be
000003a0: 1806 11bf 781e 1c3f 4494 793e 5609 27be
000003b0: af3d 0ebf 9eaf 9bbe 53e8 003e 3d5b d1ba
000003c0: 80d7 c53d cad4 013f fbea f93e 8264 d83e
000003d0: fb34 003f 93b0 49bf 2ed4 babc d5a3 b73e
000003e0: aeef 3f3f 360d abbd eebd 8cbe 5b81 cabc
000003f0: 2871 993e 736a 6b3e bb96 95be 4d79 c2be
0.5356997 -0.14925066 0.12645379 -0.02928622 0.2463189 -0.17744248 -0.2416752 -0.28426355
-0.17535862 0.098520264 -0.39120498 0.050705347 -0.06466998 0.2777373 -0.32211307 -0.057034303
0.25386196 -1.0509264 -0.137857 0.3491938 -0.29583162 -0.09441733 0.3535108 -0.29564276
0.40153438 0.85962063 -0.03595191 -0.17023787 0.15204568 0.5973988 0.342351 0.29245168
1.0841362 -0.97676504 -0.3675564 -0.1707194 -0.039000217 0.64474225 -0.11378086 -0.017747866
-0.6473912 1.1376286 0.29580212 0.10616634 -0.31479582 0.12171291 -0.27943847 -0.39768112
-0.47869807 -0.5384083 -0.0629149 0.31973785 -0.41996354 -0.11601751 0.32445735 0.03750251
0.9324232 0.54462427 0.12566139 0.20121649 -0.46734428 -0.22688217 -0.37218168 0.00031437378
-0.13803734 0.06594418 0.21665207 -0.23722593 0.124030694 -0.1185083 -0.07024478 0.46786627
-0.20313631 0.23817399 -0.48786792 -0.25367314 0.14363037 0.5411656 -0.15844037 -0.0040080864
0.09281505 -0.7332569 -0.054975938 -0.32236868 0.008348831 0.43233556 0.39865574 0.09377461
0.401231 -1.306322 -0.32552922 -0.070964344 0.11565337 -0.30561522 0.35733005 0.2573864
-0.20753565 -0.23988809 0.18205471 -0.012278013 -0.28617597 0.4163907 0.15885197 -0.19528061
-0.82841337 -0.4026744 -0.3503437 0.34390733 -0.33417615 -0.50576866 0.1851513 -0.11880083
-0.13844539 0.03416444 -0.36097026 0.09766223 0.3567449 -0.41031653 0.36535698 0.25570256
-0.51893777 -1.1693132 -0.24839576 -0.097273044 0.4725794 -0.4446379 -0.39485377 0.04945713
-0.34582317 0.37981403 -0.4616408 -0.43592784 0.61815876 0.7646179 0.23657286 0.025552453
-0.43378505 1.4022319 0.34619993 0.041983202 0.49769568 1.0102677 0.29071748 -0.13015668
0.3407853 0.9552307 -0.035782136 -0.022778273 -0.5098774 0.4437983 0.27602163 -0.34280634
-0.1539598 -0.03766106 -0.3681939 -0.3063232 -0.48945528 -0.25791386 0.30465445 0.24284793
-0.43351626 0.59159344 -0.032758333 -0.020261865 -0.32259285 0.22522074 -0.037313472 0.24169397
-0.4379947 0.6098307 0.2931326 -0.1728322 -0.41416717 -0.14463414 -0.27711058 -0.15415874
0.1840908 0.4204946 0.32458058 -0.027542388 0.0016369752 -0.5036405 0.12759219 -0.2818524
0.21857198 0.8338043 0.18446225 0.115557894 -0.4260037 -0.08205159 0.15422574 -0.08393748
0.24249636 -1.1024777 -0.2845506 0.3975592 0.55308455 0.42060107 0.18951036 -0.39173084
1.2184298 -0.13823836 -0.094891116 0.11085994 -0.057839673 -0.54994434 -0.06864204 -0.012407042
0.7642967 -0.5805365 -0.22140317 0.095332585 -0.20987576 -0.5730742 0.25329188 0.2501094
0.514151 -0.41702196 0.47029665 0.062299956 0.39401114 -0.18410712 -0.22936799 -0.15855576
-0.46347484 0.3349031 -0.054225575 -0.43375504 -0.10691953 -0.12293738 -0.31242973 -0.20422463
-0.56649923 0.6098399 0.24372965 -0.16312155 -0.5556287 -0.30407423 0.12588625 -0.0015972626
0.09660244 0.50715315 0.48812088 0.4226418 0.5008084 -0.78785056 -0.022806253 0.3586718
0.749751 -0.08352129 -0.27488655 -0.024719885 0.29969144 0.22989826 -0.2921656 -0.3798317

l1.bias f4 [400]
00000000: c547 a83e 31b5 d0be eff5 0b3f ca2b 033e
00000010: 4c06 d73b b29a 05bf 76d6 f13e e344 cf3e
00000020: 9b03 29bf 0e4b 35be 060e 2a3f 8446 ff3e
00000030: d268 0cbd f2be e83d ccb3 3dbf d649 ab3e
00000040: 5810 debe 9a1b a43d 5139 d43e db7f 963c
00000050: 779c c33e 241d 45be 4e1c eebe b305 8ebe
00000060: 1d0a 11bf ed82 65be 5d4d b93e 1480 4fbd
00000070: 2285 adbe d25b 82be 953e 24be 6597 69be
00000080: ab8a 543e c4b0 86bd c0e6 a8be e203 83bd
00000090: da12 2b3e ffe4 dabe 6d4a 203f 6260 9b3e
000000a0: 125a 033f 856c 023f 1b02 93be 7343 9f3e
000000b0: a8f1 cabe a4cc 1dbf e2bc 12be bba8 2f3f
000000c0: 979b 63bd f393 68be bb76 a73e 5612 193f
000000d0: 8915 3abe 09a5 f4be 9a86 a6be e04f e7be
000000e0: 8af2 1ebf c7f6 693e 432c 073f 97ac 143e
000000f0: a9a7 f8be a6fe 8a3e bf58 003e 4615 133f
00000100: 297f 02bf dd84 04bc 64ad ae3d cb2e 9e3e
00000110: 2078 c13e 1dfd 08bf 7e9b 99be 0b28 2abf
00000120: 6019 febc 95ec 373f 2bb9 08bf d037 df3e
00000130: 776f bd3e 78ac f1be 3763 f9be 790e af3e
00000140: 9435 663e 7330 0e3d 70cc e7be 2362 00bf
00000150: 7e1f 87be 49ad 363e f04f 223f 23db babe
00000160: aa36 f2be 52db f4be cb68 80be fd1d 103f
00000170: a848 eb3e 42b3 d1be 1fb7 2fbd 724c 02bf
00000180: 5b7b a2be db05 d13e cf5c 27bf e484 55be
00000190: e1c8 b9be 43cc 143f 0b77 823e e228 af3d
000001a0: 960e e3be c9ab 80bf c290 193d fc23 aa3d
000001b0: 5b05 f13c dc37 ee3e bcda e5be 6361 8a3c
000001c0: 05dc 3b3f 499c b03e a2d9 42be 467b 013f
000001d0: cc63 8d3d f8a2 c43d 52ed 2ebe efb7 143f
000001e0: ee21 b33e 14bf 86be fcd6 ae3e d4db d0be
000001f0: f8c0 8dbe 7b8d e3bd cc2c 65be 75ec 02bf
00000200: 9d7b 71be ef7f b3be e20a 5ebd fee3 503d
00000210: f295 dbbe 283c 54be e4f5 31bf 5d8d 223d
00000220: 0fe0 063f 1136 443f ee42 ca3e 7ed5 0ebf
00000230: 325c 0e3e 3ad9 4abb 3f3f 023f a6b6 033f
00000240: 48b7 05bf 6002 1fbf 270d f33d 3f96 d53e
00000250: 4553 043f 084d 953e bad8 823e 4f0b f8be
00000260: d657 0e3f 7213 7abc 0cac 0a3f 5f16 3abf
00000270: a5c0 55be 42de 08be 2bff fcbd aeb7 b6be
00000280: b0ac a63e bbda 893e 12ca 38bd 4065 32bf
00000290: ee84 083f 676a 403e 37cb cd3e 31d1 d6be
000002a0: 85db 253f 7912 823d 9670 f3be f108 55be
000002b0: c732 aa3e cb04 bcbe 9f57 08bf 79b6 083d
000002c0: e25c 0bbf 6426 fbbe ff4e 473d 8119 bebe
000002d0: 61dc 13bf 5172 bfbd 73a5 68be a38b b2be
000002e0: 1729 85be 33a9 2d3d af07 083f c426 df3e
000002f0: 9671 073f 6c1e 803e 8be8 f93e 18e2 8dbe
00000300: d604 953e c7b1 833c 4d32 203f fec4 203f
00000310: 7cb3 2b3e 5345 c13e 2fa4 cabe 850d 6d3e
00000320: d610 fa3e 4f3c a2be f1f6 20be 33d7 853e
00000330: c190 213f 0269 c2be 4e99 87bb df1d a7be
00000340: 24a7 0a3d ad29 343f e38d 063f 8b28 eebd
00000350: 99a6 b6be 9225 2bbe 9a14 c6bd 5e20 82be
00000360: 0e36 d5be 13b0 363e 538c 153f 18cd 623e
00000370: 7094 74be ce0e 933d ba2d 01be 3f40 a73c
00000380: e854 c83e 41ee a7be 7656 443e d6db 9dbe
00000390: 9ce1 dd3d 31f0 193f 0f0c 043c ff6c 003f
000003a0: 5250 8f3e 3a7e 1dbf 4e29 c73d a76f b0bd
000003b0: a669 0a3f a1b7 cfbe 337c d83e 35bc 8a3e
000003c0: 5424 273f 06b5 71be ee4e b73e acbc 333f
000003d0: dee2 8c3e 426a 663e af1d b2be ea6b 1a3f
000003e0: a986 91be d9e6 bf3e 8e95 20bf 8e55 90be
000003f0: 8c7d ddbe 70ad c63e 5a93 a9bd 733b 4cbf
0.32867256 -0.40763238 0.5467214 0.12809673 0.00656203 -0.5218917 0.47233933 0.40482244
-0.66021127 -0.17704412 0.6642765 0.49858487 -0.034279652 0.11364545 -0.74102473 0.3345477
-0.43371844 0.08013077 0.4144998 0.018371513 0.3820531 -0.19249398 -0.4650597 -0.27738723
-0.56656057 -0.22413225 0.36191836 -0.050659254 -0.33890635 -0.25460678 -0.16039498 -0.22811659
0.20756023 -0.06576684 -0.32988548 -0.06397225 0.1670641 -0.42752835 0.62613565 0.30346972
0.5130931 0.5094684 -0.28712544 0.31106147 -0.39637494 -0.6164038 -0.14329866 0.6861684
-0.055568304 -0.22712688 0.32707772 0.59793603 -0.18172278 -0.47782162 -0.32524568 -0.45178127
-0.62088835 0.22848044 0.52801913 0.14518963 -0.48565415 0.27147406 0.12533854 0.57454336
-0.5097528 -0.008088318 0.085291654 0.30895075 0.3778696 -0.5351122 -0.30001444 -0.6646735
-0.03101796 0.7184537 -0.53407544 0.4359727 0.36999103 -0.47201896 -0.48708507 0.3419073
0.22481376 0.034714174 -0.4527316 -0.50149745 -0.26391214 0.1783954 0.63403225 -0.36495313
-0.4730733 -0.47823578 -0.2507995 0.5629576 0.4595387 -0.40957075 -0.042899247 -0.50897896
-0.31734738 0.4082478 -0.6537599 -0.20851475 -0.3628607 0.5812418 0.25481448 0.0855272
-0.44347066 -1.0052425 0.037491567 0.08307645 0.029421499 0.46526992 -0.44893444 0.01689214
0.733826 0.34494236 -0.19028333 0.50578725 0.069038 0.09601396 -0.17082718 0.5809316
0.34986824 -0.26317656 0.34148395 -0.40792716 -0.27686286 -0.1111097 -0.2238037 -0.51142055
-0.23582311 -0.35058543 -0.054209597 0.05099868 -0.42887837 -0.20726073 -0.69515824 0.039685596
0.52685636 0.76645 0.39504188 -0.55794513 0.13902357 -0.003095223 0.50877756 0.51450574
-0.5223279 -0.62113 0.11867743 0.4171619 0.5168956 0.29160333 0.25555974 -0.48446128
0.55602777 -0.015263425 0.5416877 -0.72690386 -0.2087427 -0.13366035 -0.12353357 -0.3568701
0.32553625 0.2692469 -0.045114584 -0.69685745 0.53327835 0.1879059 0.40194103 -0.41956475
0.64788085 0.0635118 -0.47546834 -0.20804192 0.33241865 -0.36722407 -0.532587 0.033377144
-0.544386 -0.49052727 0.04865932 -0.37128833 -0.57758147 -0.09347976 -0.22719364 -0.3487216
-0.26007912 0.04239769 0.53136724 0.43584263 0.52907693 0.2502321 0.4881023 -0.27711558
0.29105252 0.016075982 0.6257675 0.62800586 0.16767687 0.37748203 -0.39578387 0.23149689
0.4884097 -0.31686637 -0.157192 0.26140746 0.631115 -0.3797074 -0.0041381484 -0.32639977
0.033850804 0.7037609 0.5256025 -0.11628827 -0.3567398 -0.1671355 -0.09671898 -0.2541532
-0.41642803 0.17840604 0.5841724 0.2214855 -0.2388475 0.07180558 -0.126151 0.020416377
0.39127278 -0.3279896 0.19173607 -0.30831784 0.10834047 0.6013213 0.008059516 0.50166315
0.27990967 -0.6152073 0.09724675 -0.08615046 0.54067457 -0.40569785 0.42282256 0.27096716
0.6528981 -0.23604211 0.35802406 0.70209765 0.27516836 0.22501472 -0.34788272 0.60320914
-0.2842305 0.3748081 -0.627282 -0.28190273 -0.43259847 0.38804197 -0.08280058 -0.7977821

l2.weight f4 [300, 400]
00000000: 29b6 48bd 2aca 93bc 4801 d0bc cd59 3dbd
00000010: 1f5f 44bd 72a2 49bd b55f 1b3d 704e 023d
00000020: 8ca6 8b3c e0ee 38bb 2049 153c c241 0bbd
00000030: d02f d0bb c24c 233d 2836 04bd 41f7 03bd
00000040: 0b6f 39bc 23b2 19bd 20df 09bb 6143 fc3b
00000050: a7bf 913c f530 29bd 2afb 99ba e15b 2d3b
00000060: 6654 a93c f74e eebc 3946 10bd 31b4 433c
00000070: 2455 08bd a2cd f83c 4201 01bd 3682 b9bc
00000080: 0085 40bb e0f3 a2bc 204d 2f3c 004b 5abb
00000090: 37ac 2f3d aac2 31bd ce56 bbbb c621 023d
000000a0: da4b f93c 9adf b3bc e8d3 313c 973b e0ba
000000b0: 2af6 a43c 1667 1ebd 5606 893c 990b 01bd
000000c0: 893a c1bc a699 993c 5a6a a639 75a8 93bb
000000d0: 05fb ff3c 92fc df3c ab99 7bbb f3f5 48bd
000000e0: 00ab 3f3c c34c 863c fb14 0ebd e532 323d
000000f0: f467 76bc 30d7 8abb 6889 68bc 8c6b 7cbc
00000100: cdef dbbc 0a06 98bc fc0b 543c c7af e53c
00000110: d760 c4bb a89b 4fbc 1ba5 253d 2ad9 f6bc
00000120: ab8d 5ebd af9a f63b 5abe a03c bfad f8bc
00000130: 07a4 19bc 0ac5 f53c 0030 f5bb 9045 8ebc
00000140: 6fa4 143d 235e 0dbd 3081 c23b 1af3 e73c
00000150: c568 853c 8d1c 2abc 7fa4 49bd d1e2 a6bc
00000160: c7cb eabc 20af 22bb 1931 2e3d 0bdd 913c
00000170: 5f78 303d d434 7c3c c0e3 98bc 92e1 47bd
00000180: 74f3 5dbd 3a52 f03c 8c6c 30bc 7eca 8c3c
00000190: c0b8 32bd 6167 263c 64b3 4c3b c5cd 183d
000001a0: 1801 33bc 6fb0 023d 1d6b eebc 5088 55bd
000001b0: 801b 003d f9f7 463d 8ac8 fcbc 0a65 a73c
000001c0: b81f f1bb c303 cc3c a785 3c3d a6d4 213c
000001d0: b05e eebb 60e7 a0bc bc17 7e3c 103f 26bd
000001e0: 5570 303d b072 1bbd 14a1 0d3d 82a1 e13c
000001f0: 1927 2a3d bfbd 273d 8711 45bd 9d20 e2bc
00000200: c78f ee3b 5542 333d fd6e 393a 6ebd ac3c
00000210: 18bc c83b 7b60 7e3c 1236 c23c a08c 9b3a
00000220: a204 153d 05ae 45bd 1aa0 0c3c 8e31 e23c
00000230: 685f dabb 34ba 48bb 0031 45bd 5755 9bbc
00000240: 0852 00bd a8f4 b73b 5d46 49bd c7cc 46bd
00000250: 65f4 ebbc c7be d3bc 805b c6bb 6052 f1bc
00000260: 71f7 0bbd 41c0 d4bc 19c4 223d 21f5 1e3d
00000270: e876 a0bb b0af e2bc 43cd 2f3d 079f dabc
00000280: 8d4f bf3c d781 e23c b6d1 f73c e26d db3c
00000290: 9ca7 f3bc 23fb 39bd d243 b23c 77b7 c1bc
000002a0: 6bb4 87bc 09e4 8b3c 473e a0bc 263d fa3c
000002b0: a183 3cbd 48e6 76bc 5dbf a3bc 51a4 13bd
000002c0: b78c babc cd93 fdbc c94c f03c ead0 f83c
000002d0: 6cd3 7fbc 3dc2 36bd c0ba a2ba 91ea 473d
000002e0: ae0b b73c d49c cf3c ef2b 893b e496 cf3c
000002f0: 3dfa 87bc 0c08 08bd 9ecd babc 1afe 213b
00000300: 1016 1abb 5ef2 903c f482 39bc 9404 16bd
00000310: 7853 16bc 71b5 d53c 343a 163c c33b ec3c
00000320: da9f 21bd 59e2 033d 30f2 50bb 85e1 71bc
00000330: 68cf 513b 0149 0c3d af30 163d 68c0 b9bb
00000340: a058 303c 5996 bc3b 2e6e 74bc 9ee3 30bd
00000350: f654 fb3c d59e 00bd 5a37 27bd 8067 53bb
00000360: 7448 67bc dd87 2cbd c6ea 28bd cb74 1abd
00000370: ec14 4a3c 74d2 13bd 06d3 5dbd 40b1 dc3a
00000380: 870c abbc a395 213d ff2e 3cbd 80a6 8abb
00000390: d79a 4c3d 63a3 e9bc 30cb c83c 99a3 52bc
000003a0: 98b0 14bc 28c3 abbb 5402 c23c 2d5d 353d
000003b0: 0507 363b c3dd 403d 5594 3ebc 4b9d 0bbc
000003c0: 3fcd 803a 08b4 19bc cc31 13bd bc6a 35bd
000003d0: 0e86 46bd 5cb9 263d 2c26 43bc 56d8 a4ba
000003e0: 2d1d f9bc b07d 2bbd b8df 14bd df80 263d
000003f0: 05ba 10bd 75b4 7bbc 955f bdbc bcf1 93bc
-0.049001846 -0.018040735 -0.025391236 -0.04622822 -0.047942277 -0.049227186 0.03793307 0.031813085
0.01704719 -0.0028218552 0.009111673 -0.03399826 -0.006353356 0.039868124 -0.03227821 -0.03221822
-0.011317979 -0.0375234 -0.0021037534 0.007698462 0.017791582 -0.041306455 -0.0011747826 0.002645247
0.020670127 -0.029090388 -0.03522322 0.011944816 -0.03328432 0.03037149 -0.03149534 -0.022645097
-0.002937615 -0.01989168 0.01069954 -0.0033308864 0.042888846 -0.043398537 -0.005717135 0.03177049
0.030431677 -0.021957207 0.010853745 -0.0017107603 0.020136911 -0.03867253 0.016726654 -0.0315052
-0.023587482 0.018750023 0.00031741225 -0.0045061656 0.031247625 0.027342115 -0.0038391154 -0.04906268
0.011698484 0.016394025 -0.034687977 0.043505568 -0.015039433 -0.004237078 -0.014192916 -0.015406501
-0.026847744 -0.018557567 0.01294231 0.028037919 -0.0059929895 -0.012671389 0.04044066 -0.030132849
-0.054334324 0.007525764 0.019622017 -0.030356286 -0.009377486 0.030001182 -0.0074825287 -0.017367154
0.03628963 -0.034513604 0.0059358105 0.028314162 0.01628531 -0.010382784 -0.04922914 -0.020371826
-0.028661622 -0.002482362 0.042527292 0.017805597 0.043083545 0.015393455 -0.018663287 -0.048799105
-0.054187253 0.029336084 -0.010768067 0.0171864 -0.043633223 0.010156483 0.0031234855 0.037305612
-0.010925554 0.03190654 -0.02910381 -0.05213195 0.031276226 0.04857633 -0.030857343 0.020433921
-0.0073585175 0.024904137 0.0460259 0.0098773595 -0.007274471 -0.019641578 0.015508588 -0.040587485
0.04307588 -0.03795117 0.034577444 0.027542833 0.041541193 0.04095244 -0.04811242 -0.027603442
0.007280323 0.04376443 0.00070737285 0.02108642 0.006125938 0.015525932 0.023707423 0.0011867471
0.03638137 -0.04826166 0.008583093 0.02761152 -0.0066642053 -0.0030628564 -0.048142433 -0.018961592
-0.03132823 0.005613882 -0.04913937 -0.048535135 -0.02880306 -0.025847806 -0.006053388 -0.029458225
-0.034171525 -0.02597058 0.039737795 0.038807992 -0.004896987 -0.027671665 0.042920362 -0.026687158
0.023353362 0.027649803 0.030251365 0.026785795 -0.029743008 -0.04540552 0.021760855 -0.023647053
-0.016565522 0.01707651 -0.019560946 0.030546736 -0.04602397 -0.015069552 -0.01998871 -0.036045376
-0.022772176 -0.030954266 0.029333489 0.030373055 -0.015614372 -0.044618834 -0.0012415275 0.048807684
0.022344436 0.025343336 0.0041861455 0.025340505 -0.016598815 -0.0332108 -0.022803124 0.0024718107
-0.0023511685 0.017693695 -0.011322726 -0.03662546 -0.009175174 0.026087495 0.00916915 0.02883709
-0.039459087 0.032198284 -0.0031882636 -0.014763241 0.0032014493 0.03424931 0.036667522 -0.0056686886
0.010763317 0.0057552275 -0.014918847 -0.043185823 0.030680161 -0.031401474 -0.04082427 -0.0032257736
-0.014116395 -0.042121757 -0.041239522 -0.03770904 0.01233409 -0.036089376 -0.054156326 0.0016837493
-0.020879997 0.039449345 -0.045943256 -0.004231274 0.049952354 -0.028520292 0.02451095 -0.0128563875
-0.009075306 -0.0052417703 0.02368275 0.044278312 0.002777518 0.04708649 -0.011632045 -0.008521388
0.0009826793 -0.009381302 -0.035936162 -0.044291243 -0.04846769 0.040704116 -0.011910956 -0.001257668
-0.03040942 -0.04186791 -0.036346167 0.040650245 -0.035333652 -0.0153628485 -0.023116866 -0.018059604

l2.bias f4 [300]
00000000: 07c6 36bd 6170 cd3d 4af0 113e 3b84 a1bc
00000010: e6ba d73c e8a2 e83d 9f55 513d 1df1 a33d
00000020: 6b89 013e a999 d23c 4c36 c6bb 0b6e 29bd
00000030: 23c0 13bd d696 de3d 19d7 74bc ae33 a23b
00000040: 86b4 a43c 3d1c 0f3e 1dad df3d a638 8a3c
00000050: 051b 1c3d 48bb 8a3d bff2 ae3d 6f45 d83d
00000060: fa4e efbc 355c 1e3e 8cf1 3b3c d33b 0a3d
00000070: f9c1 19bd b2d3 1f3e 9f05 e8bc 86d7 febb
00000080: f1ca 04bd a469 eebc 50e0 c23d 7ac8 5ebd
00000090: bee2 033e 6710 773d 171b b53d 7f58 15bd
000000a0: ba3b de3d d27f 9b3c ee8d eb3d 5b9d 2abc
000000b0: a3e0 3a3e 537b 123e e301 243e ff72 873d
000000c0: 79c0 8dbc 433e 1e3e d23e 4abd edca 5dbd
000000d0: c51e aabc 2c6d e43d 81ae 35bd 2228 0e3e
000000e0: 54d9 89bc 132e 083d d28e 00bd 3421 1fbc
000000f0: d6fa 8abc 65a4 1ebd 570e c73d 85c3 48bd
00000100: 6201 063e b9b0 18bd 30e2 313e 8d19 c33d
00000110: 6cf8 dcba 3080 a5bb a88e 2d3e e399 ce3d
00000120: ce59 41bd 0a18 e53d 1f6f a9bb ef44 363e
00000130: 8647 e03d a144 a73d 05ad 063e 8e13 f13d
00000140: 3433 73bc 20c4 193e a993 743d d2a5 213e
00000150: 9554 13bd 77b8 fd3d 2128 61bd 4f87 a43c
00000160: 4029 ff3d 5d32 0ebd dad7 ab3d aa10 883c
00000170: b137 973d 4c09 df3d 3d1d ed3c d1d5 ec3d
00000180: f91f 1d3c e3da a33c 9aca 833c 704d a2bd
00000190: 1509 6c3c c31f 1f3d 9638 0f3e 32b1 1dbd
000001a0: 3f32 093e 4bc0 3e3e f951 0b3c 3bee 83bd
000001b0: aaa3 afbc 54c8 8abc 8184 8c3c e317 983d
000001c0: 309f 4abd 62c5 833d 880e f03d dfd4 003e
000001d0: 38b4 bc3c 5b71 143b 8ab2 993e 599c 323e
000001e0: baa1 8f3d 706c 42bc 2ff7 fd3d 37e8 eebc
000001f0: 6bc7 b7ba 798f 8d3d 8a5d 813d aa44 86bc
00000200: 894f e93d d17d f93d 68e1 ff3d ca56 7dbc
00000210: fffe ecbc b025 1f3d bb43 2e3e ff97 e63d
00000220: 5746 1ebc 6c20 04bb 057d 003e b5c4 113e
00000230: a846 27bd 82d6 b23c 1b1d 093e 63bc 0b3e
00000240: 19b8 ac3c 7628 983c 5588 043e 0e07 03bd
00000250: 66fe 093e 94de 7d3d b895 01bd ae14 20bd
00000260: 3181 f0bc 5de1 dd3d 968b 0cbd 5656 293e
00000270: 9c4e 213d 9b4d 143c fde3 d03d 3a95 203d
00000280: 603b 863d f868 76bd 70ed bcbc 9c51 a43d
00000290: f457 263d 82a7 043d fdaa b33c 465e 4bbc
000002a0: ef98 e93c 03d3 1a3e f170 d23d 6f81 993c
000002b0: f57d b13a e1a6 113e b9cd 963d b763 2f3e
000002c0: f5e8 a03d 3471 343e a1a3 df3d 17bd ff3c
000002d0: b83e cd3d ffb2 cfbc acc1 803d 845d 143e
000002e0: deb6 c13d ad4b 65bd 7484 893d 3954 81bd
000002f0: ba4a f23d 90de c2ba 7bd0 063e 4373 c73d
00000300: 2939 a43d 52ae 1c3e a2d5 013e 7998 833c
00000310: 93b4 403e 2521 54bb fd20 663c b6fa 1f3e
00000320: a19b e13d c8df 0e3d 3e6e fc3d d1a8 543c
00000330: d991 ef3d 2ff7 efbc 41a9 e63d 7f4d 103e
00000340: 30f1 043e ec9a 043e 9e34 d63d 9d18 62bc
00000350: 86b3 cd3d 8aef 073e 1854 a73b 3809 1e3c
00000360: dc41 383e 57da 253e eaa1 ea3d d40b b93d
00000370: b9ce f83d 5217 163d 290a 273a 3c44 f3bc
00000380: fe34 30bd e74d e93c 6c91 933d 8bd4 c23d
00000390: 900c d83d 2c5d 19bd 4b01 73bd 233d a3bc
000003a0: 5c69 82bd 0b00 8a3c 6f1a 4e3e 7ed7 793c
000003b0: c14b 4e3e c0c3 023e 5978 9c3d df21 0e3b
000003c0: be2c c03d 8046 e53d d67a 14bd 911c 063d
000003d0: 1b1a a33d c2dd 2b3e e683 133e 1ac3 343d
000003e0: 1a06 79bd 9b7f 61bd b8ac 963d 1590 53bc
000003f0: 5820 183c 104a bd3c b285 2f3d e300 243e
-0.044622447 0.100312 0.14251819 -0.019716373 0.026334237 0.11359197 0.051107045 0.08004973
0.12650077 0.025708036 -0.006048953 -0.04136471 -0.036071908 0.108686134 -0.014943861 0.0049500084
0.020105612 0.13975616 0.109216906 0.016872715 0.038111705 0.06774002 0.08542394 0.105601184
-0.029212464 0.15464862 0.0114711635 0.03374846 -0.037538502 0.15608099 -0.028322993 -0.0077771572
-0.032420103 -0.029103108 0.095154405 -0.054390408 0.12879464 0.060318377 0.088430576 -0.03646135
0.10851236 0.018981848 0.1150168 -0.010413493 0.18249755 0.14304857 0.16016345 0.06613731
-0.017303692 0.15453438 -0.049376316 -0.054148603 -0.020766625 0.111536354 -0.044355873 0.13882497
-0.016827263 0.033247065 -0.031386204 -0.009712506 -0.016965311 -0.038730998 0.09719532 -0.049014587
0.13086465 -0.03727791 0.1737144 0.09526358 -0.0016858703 -0.0050506815 0.1694895 0.10087945
-0.047204785 0.11186226 -0.0051707174 0.17799734 0.10951142 0.08167387 0.13151939 0.11771308
-0.014843751 0.15016222 0.059711132 0.15785912 -0.035969336 0.123886995 -0.05496991 0.020084051
0.1245904 -0.034716 0.0839078 0.016609509 0.07383669 0.10890445 0.028944606 0.1156422
0.009590142 0.020001834 0.016087819 -0.07924926 0.014406462 0.03884865 0.1398643 -0.038499065
0.13398074 0.18628041 0.0085034305 -0.06441923 -0.021440346 -0.016941227 0.017153027 0.07426431
-0.04946822 0.06434132 0.117215216 0.12581204 0.023035154 0.0022650573 0.30019027 0.17442454
0.07013269 -0.011866674 0.12400662 -0.029163463 -0.0014021223 0.06912131 0.06316669 -0.016390163
0.11392123 0.12182201 0.12494165 -0.015462587 -0.028930185 0.0388543 0.17018025 0.1125946
-0.009660325 -0.0020160927 0.12547691 0.14235194 -0.040838867 0.0218308 0.13390009 0.13646083
0.021083878 0.01857398 0.12942632 -0.03198915 0.13475952 0.061979845 -0.031636924 -0.03908222
-0.029358478 0.10834 -0.034312807 0.16536841 0.03938161 0.009051706 0.10199735 0.039204814
0.06554294 -0.0601587 -0.023062438 0.08023378 0.040611222 0.03238631 0.02193212 -0.012412613
0.028515307 0.15119557 0.10275448 0.018738477 0.0013541566 0.14223816 0.07363457 0.17127882
0.07856933 0.17621309 0.109198816 0.031218095 0.10021728 -0.025353907 0.0628694 0.14488798
0.09458707 -0.055980373 0.067147166 -0.06314892 0.11830659 -0.0014867354 0.13165466 0.09738781
0.08018715 0.15300873 0.1267915 0.016063916 0.18818884 -0.0032368388 0.014045951 0.15622982
0.11016012 0.034881383 0.123257145 0.012979702 0.1169774 -0.029292671 0.11262751 0.14092062
0.1298263 0.12949723 0.10459255 -0.013799814 0.10044007 0.1327497 0.0051064603 0.009645753
0.17993873 0.16196571 0.11456664 0.09035459 0.12148804 0.036643334 0.00063720584 -0.029695623
-0.043019287 0.02847953 0.072054714 0.095131956 0.10549271 -0.03744237 -0.059327405 -0.019926613
-0.06367752 0.016845724 0.20127271 0.015249131 0.20146085 0.12769985 0.07640142 0.002168767
0.09383534 0.111950874 -0.036249958 0.032742087 0.079639636 0.16783813 0.14405784 0.044131376
-0.060796835 -0.055053335 0.07357162 -0.01291277 0.009285055 0.023106605 0.04285211 0.16015963

l3.weight f4 [1, 300]
00000000: 994f 7e3c b417 f1bd f827 17be 4685 b6bb
00000010: 55df 363d 4752 51bf 35f8 08be 5f2a 16be
00000020: 0888 53be 9cf8 2f3d 4c31 d63b caf4 1b3d
00000030: 1d1d 963c 80e8 13be 5472 0b3c 5b95 f4be
00000040: 66b5 293d 44db 31be 32b9 c3be 936d 123d
00000050: a315 0e3d 61e9 27be 489f 0fbe 843d 20be
00000060: 2465 d13c bc56 99be 7b5e 793a 722d 58ba
00000070: 8fd0 9c3c 29cb 8abe 2e6d aa3c f8e8 253d
00000080: bcde 163d 5ad7 073d d7ad eabd 885b 023c
00000090: d39a c3be e356 39be 56cd 4fbe b785 a23b
000000a0: 693e 07be 7c42 273d 22ac 20be b0fc c9bb
000000b0: 2d64 bfbe 7e31 59be bcd8 53be 08b0 30be
000000c0: 1717 483d b120 01be cde9 903c 9087 2b3c
000000d0: 12f6 0e3d 035b 09be 882d 793b c245 0ebe
000000e0: f15e 333b 688d 173c de9f 033c e09d bf3c
000000f0: e879 9eba c0bf 8e3b 1b87 1fbe 1613 85bc
00000100: c1bf 16be 7948 2c3d e314 98be bc5f 13be
00000110: 3880 373d a851 9bbb 0ae6 7abe 0cd4 21be
00000120: 9b3c 1d3d d4da f2bd 72ae cf3c ec81 2abe
00000130: e41a 83bf 1b74 2abe 58f4 18be 8660 0bbe
00000140: 0e86 08bd 13d7 0cbf 64b5 19be 2217 8fbe
00000150: 9b09 eabc 45f6 f2bd 63ff 593c 90f2 183b
00000160: d76f 91be d667 4c3d 4bf8 0bbe 1a5b 323d
00000170: 6956 05be 9380 babe c478 3f3d 09c1 1abe
00000180: a3d4 86bb 951a 053b 28d8 423d c384 0b3f
00000190: 6b68 d53c aefc dc3c 5081 0dbe 9175 9bbc
000001a0: 8489 eebd 9b35 41be 4020 273d f932 c2bc
000001b0: 9096 63bb 37f1 673e 94c0 e1bb 746d 95be
000001c0: 5d42 833c ac2a 34be 6f43 0ebe 04fa 05be
000001d0: fb5e 9a3c 1271 483d 4638 2740 3eac 15be
000001e0: 8594 19be 078c a2bb 194e a0be 51ed 3b3d
000001f0: 18dd 2b3d 23f4 0cbe 2db7 65be eb11 a93c
00000200: 2265 08be ddf8 1fbe c1e8 bdbe d546 d53c
00000210: 4052 443d bf1c 323d f4fc 93be c90a 19be
00000220: 0085 213c 3142 9b3c 22a6 90be 6df5 43be
00000230: afaa 0e3d 16dd 323d 8e83 15be f3b1 15be
00000240: a982 483c 5da0 f23c 4dc5 17be 4fda d33b
00000250: c91b 4fbe ffa4 1fbe a060 e93c d480 1b3d
00000260: 353e 34bc 5e48 23bf 1cbf 2fbd 108d 0ebe
00000270: 0d77 1e3b 53f8 4fbb ddda 57be a27e 79be
00000280: 6382 0cbe e17b 093d b01c a73b 4f6e 1dbe
00000290: a8cb df3c 4eb1 033c 3c0e cc3c 6569 d33c
000002a0: f8cd 333d fcd4 1abe f2d9 29be 0033 56ba
000002b0: 8ed6 263d f0c4 a8be ee0f 43be 2aab 6bbe
000002c0: a6bd d2be 7d16 7abe 020f eabd 05f8 223d
000002d0: f4fd 0fbe fd55 c7bb 631f 19be bc5b 9fbe
000002e0: 5f1d 3dbe 5b2b e2ba 43d6 13be d51b 633c
000002f0: 8560 a7be 5d38 153d 3631 b3be 5cd7 0ebe
00000300: bb36 07be c720 f4bd e5a0 2fbe d0e6 d43b
00000310: 709c 9bbe 56dd 0d3c 58eb 4b3d b29c 20be
00000320: 2f84 35be 3974 3a3d ad93 f8bd 5e75 2d3c
00000330: 19a8 71be c719 223d 08e6 fbbd e757 cdbe
00000340: beff e1be cab8 b3be cc8b fabd 34cc 04bc
00000350: b3d0 21be 2bdd 2abe dc6a 40bc efa5 ae3c
00000360: ec48 91be c348 38be 8a86 09be 5642 62be
00000370: d986 88bf 60b8 893a 613f 313d 381e 21bb
00000380: 0f8b 48bb 88a0 0dbb 8509 1dbe 0db7 3dbe
00000390: 0ebe dabd 0047 293d 3a5b e5bb 76d2 c43b
000003a0: 3820 4db9 4e8b 6d3c a293 abbe 7222 b13c
000003b0: d21a 83be 8c70 12be 94f8 18be 8404 c63c
000003c0: 7cba 0fbe 8287 15be 8597 a0bb e664 b73c
000003d0: 87b0 1cbe a603 f8be 1a54 35be 1698 e1be
000003e0: a147 ff3c 1925 c93b 58de 6dbe 3e2e 7bbb
000003f0: 2f32 04bf 7e2f 2f3d 3595 2d3d 66ef 9dbe
0.015521907 -0.11772099 -0.1476134 -0.0055700867 0.04464658 -0.8176617 -0.13375933 -0.14664601
-0.2065736 0.0429617 0.0065366384 0.038075246 0.01832443 -0.1444416 0.008511145 -0.477702
0.04143276 -0.173688 -0.3822723 0.03574903 0.034688603 -0.1639762 -0.14025605 -0.15648466
0.025560923 -0.29948986 0.0009512675 -0.0008246518 0.019142417 -0.27108124 0.020804014 0.04050538
0.03683351 0.03316436 -0.114589386 0.007956393 -0.3820406 -0.18099551 -0.20293173 0.0049597877
-0.13207401 0.04083489 -0.15690663 -0.006164156 -0.37381116 -0.21210286 -0.20688146 -0.1725465
0.048850145 -0.12610127 0.01768961 0.010469332 0.03490264 -0.13413624 0.0038021524 -0.13893798
0.0027369822 0.0092500225 0.008033721 0.02339071 -0.0012090774 0.0043563545 -0.15578882 -0.016244452
-0.14721586 0.042061303 -0.29703435 -0.14391989 0.044800013 -0.004739959 -0.24501815 -0.15803546
0.038387876 -0.118581444 0.025351737 -0.16651124 -1.0242581 -0.16645853 -0.1493696 -0.1361104
-0.03333097 -0.5501568 -0.15010601 -0.27947336 -0.028569033 -0.118633784 0.013305518 0.0023337938
-0.2840564 0.049903713 -0.13668935 0.043543912 -0.13021244 -0.3642622 0.04674603 -0.151127
-0.0041147037 0.0020310034 0.047569424 0.54499453 0.026050767 0.026975956 -0.1381886 -0.018976958
-0.11647323 -0.18868105 0.04080224 -0.023705946 -0.0034727193 0.2265061 -0.006889412 -0.2918507
0.016022855 -0.17594403 -0.13892911 -0.13083655 0.018844118 0.048935957 2.6128097 -0.14616486
-0.14998062 -0.00496054 -0.31309584 0.04588062 0.0419589 -0.13765006 -0.22433157 0.020638427
-0.13319829 -0.15622278 -0.3709164 0.026034752 0.047930002 0.043484446 -0.28903925 -0.1494552
0.00985837 0.018952461 -0.2825175 -0.19136591 0.034830745 0.043667875 -0.14600965 -0.14618663
0.012238183 0.029617483 -0.14821358 0.0064652334 -0.20225443 -0.15590285 0.028488457 0.037964657
-0.011001159 -0.637823 -0.042906865 -0.13920999 0.0024179847 -0.0031733706 -0.21079583 -0.24364713
-0.13721614 0.033565406 0.0050998554 -0.1537411 0.02731879 0.008037878 0.024909131 0.025807092
0.0438976 -0.1512031 -0.16587046 -0.0008171052 0.04073196 -0.3296275 -0.19049045 -0.23014513
-0.41160315 -0.24422641 -0.11428644 0.03978731 -0.14061719 -0.0060832486 -0.1495338 -0.31124675
-0.18468235 -0.0017255353 -0.14437203 0.013861616 -0.32690826 0.036430705 -0.34998482 -0.1394934
-0.13204472 -0.11920314 -0.1715122 0.0064972416 -0.3039279 0.008658728 0.04978499 -0.15684775
-0.17726205 0.045520995 -0.12137542 0.010587065 -0.2359928 0.039575364 -0.12299734 -0.40106127
-0.44140428 -0.3510192 -0.122336954 -0.008105326 -0.15802269 -0.16685931 -0.011744227 0.021319358
-0.28375947 -0.17996506 -0.13430229 -0.22095618 -1.0666152 0.0010507219 0.043273333 -0.0024584662
-0.0030600464 -0.0021610577 -0.15335663 -0.1852686 -0.10680781 0.041327477 -0.0069994004 0.006006534
-0.00019562326 0.014498545 -0.33511072 0.02162287 -0.256064 -0.14300746 -0.14938575 0.024172075
-0.14035982 -0.14602473 -0.004900875 0.02238698 -0.15301715 -0.48440284 -0.17707863 -0.44061345
0.031162085 0.0061384556 -0.23229349 -0.0038327123 -0.51639074 0.0427699 0.042378623 -0.3084671
